best_emoji_model.pth (torch, 420271 bytes, 22 tensors)

block1.0.weight f4 [32, 3, 3, 3]
000000 45 74 c9 3d 6c ed b7 3d 36 57 3c 3d ca 3a 78 3b
       0.0983663 0.089808315 0.04598161 0.0037876838
000010 e1 4b 88 3e 28 8d 4c be 63 14 86 3e 9d b8 89 bd
       0.2662039 -0.19975722 0.2618743 -0.06724665
000020 f2 e0 8f bd 32 af 78 bc 2d d2 d9 3d bf 5a 2b bc
       -0.07025327 -0.015178489 0.10635791 -0.010458647
000030 ea de 50 bd bc 53 09 3d df 8b b3 3d 4c 70 c2 bd
       -0.050993837 0.03352712 0.08766913 -0.09494075
000040 26 c0 c5 3d 7b 31 c0 bc b2 a7 69 be 10 5b be 3d
       0.0965579 -0.023461094 -0.22817877 0.092947125
000050 5e a5 0a be 2b d6 9d be b5 e7 02 be 34 fc 21 3d
       -0.13539645 -0.3082746 -0.12783702 0.03954716
000060 47 5d 2b bd 62 28 8e 3d 4c 49 26 3e 4b 78 b9 3d
       -0.041837003 0.06941296 0.16238898 0.09056147
000070 d2 4d 93 3d 74 2b 02 be e9 50 b4 3b b3 c0 07 3c
       0.071925774 -0.12711889 0.0055028093 0.008285689
000080 ca 14 a5 3d 1d a9 08 be fc 84 51 bd 90 ec 93 bb
       0.08060606 -0.13345762 -0.051152214 -0.0045142844
000090 68 29 0f bd 20 92 92 bd a2 90 1e 3e 74 5b 73 3d
       -0.034951597 -0.071567774 0.1548486 0.05941339
0000a0 ca bb 5e be 53 9b 90 3d c6 5d 03 be 43 89 a7 3d
       -0.21751323 0.07060876 -0.1282874 0.081804775
0000b0 a1 c6 6c 3e e8 e5 08 3e f3 ba 99 bd c4 19 3e be
       0.23122646 0.13368952 -0.07506361 -0.18564516
0000c0 9f 3a 67 3d 96 1d ec bd 94 d0 e5 3d aa 90 6c be
       0.05645239 -0.115290806 0.11221424 -0.2310206
0000d0 fe e8 bd 3d 54 22 23 3e 77 bf 32 be 71 73 96 bc
       0.09272955 0.15931064 -0.1745585 -0.018365594
0000e0 d5 f0 fe bd 77 33 1b be ec 6a ec 3c 7d 4b b1 3c
       -0.12448279 -0.15156351 0.028859578 0.02164244
0000f0 1c 2b f0 3d 0c f1 07 3e 88 e2 cb 3d 26 fa 9a be
       0.117269725 0.13275546 0.09955317 -0.30268973
000100 5f 00 7c be ea 8c 19 3e 47 cd ef bc d7 3d 0c 3e
       -0.24609517 0.1499516 -0.029272689 0.13695465
000110 e3 6d af bc 38 13 d7 3d cd ed fd bd 47 fa 0f be
       -0.021414703 0.105017126 -0.123988725 -0.14060317
000120 46 3c 0d be d2 29 6d be 58 7d ba 3b 5a 2e cb 3b
       -0.13792524 -0.23160484 0.0056912117 0.006200594
000130 6d 55 10 bd 55 54 e7 bc dc 0b 0f be 66 0a 8d 3d
       -0.03523772 -0.028238455 -0.13969368 0.06886749
000140 22 f2 76 be 82 84 c5 3d ea 76 80 3d c4 75 15 3e
       -0.24115804 0.096444145 0.06272681 0.14595705
000150 fe a0 44 be dc 14 0f be 75 2a 70 3e 81 f3 4e be
       -0.19202039 -0.13972801 0.23453696 -0.20210077
000160 4b 53 2b be 8c 0d 43 3e b2 74 b7 3a e4 90 59 3d
       -0.16730992 0.19048136 0.001399657 0.053116694
000170 6e 00 2d bd 40 54 fa 3d bb 7c a8 3d 17 ba 87 3d
       -0.042236738 0.12223101 0.082269154 0.06627291
000180 69 05 39 be ea 96 c0 3c 9c f9 41 be 6f 7d 38 be
       -0.1806847 0.023509461 -0.18942875 -0.18016599
000190 e2 d3 67 be f2 9c c9 bd 39 cc 1a be 79 43 e7 bd
       -0.2263942 -0.09844388 -0.15116967 -0.11292166
0001a0 8b 7e 82 bc 92 82 35 3e 89 0f 02 3e 8b b6 6f 3d
       -0.015929481 0.1772559 0.12701239 0.058523696
0001b0 5f ba 27 3e ff 1e 02 be 7b f9 59 3e 96 20 66 3c
       0.16379689 -0.12707137 0.21286575 0.014045855
0001c0 bb 30 bf bd a0 aa 77 be fe df 0e be fd 9c 5d be
       -0.093354665 -0.24186182 -0.13952634 -0.21641918
0001d0 b6 ed a5 bd 23 8c 97 3d ed e0 7e 3e 2f 3c f9 3a
       -0.081019804 0.07399776 0.2489049 0.0019015128
0001e0 c7 9d 04 3d 39 c0 26 be 2d ec 35 3e f3 df c0 3d
       0.03237703 -0.16284265 0.17765875 0.09417715
0001f0 4f 29 b2 bd 1a 86 83 bd f8 a0 05 be 95 64 a9 bc
       -0.08699285 -0.06422062 -0.13049686 -0.020677844
000200 0b 2b 03 3e 89 70 cb 3b 3e 58 01 3e 06 40 21 be
       0.12809388 0.0062084836 0.12631318 -0.15747079
000210 4f 35 15 3d 58 6a 09 3d b9 e7 01 3e dc 9a ac 3d
       0.036427792 0.033548683 0.12686051 0.084279746
000220 17 29 5d 3d 9a df a4 bd cd d9 7e bc a0 e0 31 be
       0.053994264 -0.08050461 -0.015554857 -0.17370844
000230 94 ea 36 be 41 0a 68 3e 45 38 5b 3d 66 f7 e2 3d
       -0.17862922 0.22660162 0.05352046 0.11082344
000240 b1 10 23 be 36 58 83 bd ad b2 e8 3d 75 bd 30 3d
       -0.15924336 -0.06413309 0.11362205 0.04314943
000250 f9 81 4d 3d b1 2a 8e be e6 b0 83 3d 57 27 5e 3e
       0.05017278 -0.27766946 0.06430225 0.21694694
000260 05 5e 1d bd 29 d5 ba 3d 09 59 4b bc a4 37 cb bb
       -0.038419742 0.09122688 -0.012411364 -0.0062017012
000270 9e 9e 33 3d 24 21 67 be b3 0f 3e be 9d 64 1d 3e
       0.04385244 -0.22571236 -0.18560676 0.15370412
000280 6f 67 6e bc c5 0b 4c 3e c1 e8 59 3d 5b 19 cb bc
       -0.014551028 0.19926365 0.053200487 -0.024792364
000290 2c a8 3a be 75 d6 b4 bd ec 66 6a bd 7b 7c 50 3e
       -0.18228215 -0.08829967 -0.05722706 0.20359986
0002a0 83 81 2f be 35 30 cd 3d d7 fd a9 3d 7d 12 dc bd
       -0.17139249 0.100189604 0.08300369 -0.10745714
0002b0 f8 12 b8 3d bb 74 bb bd 8c 8e 33 3e 8b c1 8f 3d
       0.08987993 -0.09153124 0.17534846 0.07019337
0002c0 1b f7 1b 3e 9e 26 fb bd 06 34 80 bd 9f 94 a0 bb
       0.15230982 -0.12263225 -0.06259923 -0.0049005295
0002d0 9a e7 8f 3e 5c 33 f2 bd fa ba 78 be 70 ab 49 3d
       0.28106385 -0.11826202 -0.24290076 0.04923576
0002e0 f7 8c 88 3e 23 11 c9 bd 4d 4f 0f be 52 48 b4 bd
       0.26670048 -0.09817722 -0.13995095 -0.088028565
0002f0 b3 d6 18 be df 90 84 3d 7a c8 01 3e 2b da 5b 3c
       -0.14925651 0.064729445 0.12674132 0.0134187145
000300 0c 91 6f bd 10 26 54 be 14 1d 10 bc d0 92 9d bd
       -0.058487937 -0.20717645 -0.008795995 -0.07694018
000310 d2 54 49 3e 6e 2b c6 bb 2d 75 74 bd 62 d6 48 3e
       0.19661263 -0.0060476577 -0.05968206 0.1961303
000320 f6 58 53 3e d9 d4 21 be 04 e2 81 bd 65 e7 6d 3d
       0.20639405 -0.15803851 -0.06341937 0.058082003
000330 17 b1 f1 bc f4 c4 08 be d1 90 f1 3b 4c a5 0b 3e
       -0.029503388 -0.13356382 0.007372 0.13637275
000340 36 01 8c 3e 8a bc 23 bb a6 67 18 be ca 69 d8 bd
       0.27344674 -0.0024984204 -0.14883289 -0.10567053
000350 cc 66 fa 3a 17 4c 07 be f8 88 79 3d 64 65 f6 bd
       0.0019104122 -0.1321262 0.06092164 -0.120310575
000360 35 30 1d be fa 58 d5 3d b3 2f 7d 3d d3 b9 03 bc
       -0.15350421 0.104173616 0.061813068 -0.008039909
000370 61 9d 11 bd 1d 2d 5a 3d 9e f0 94 3d 09 56 d3 bd
       -0.03555048 0.05326568 0.072724566 -0.10319144
000380 42 c8 2b be d2 3c 41 be 97 af 40 3d ba ec 26 be
       -0.16775611 -0.18870857 0.047042456 -0.16301242
000390 f6 6f 06 3e 5f c3 4a 3e 6b c5 b8 3c f3 9d 0f be
       0.13128647 0.1980109 0.022555074 -0.14025097
0003a0 d4 ca 7d 3e 3f 1b 48 be 17 00 03 be 25 da 97 bb
       0.24784404 -0.19541644 -0.12793003 -0.004634159
0003b0 f2 55 36 be 66 ed 0c be bb 81 d8 3d 47 99 6f 3e
       -0.17806223 -0.13762435 0.10571619 0.23398314
0003c0 b8 53 42 be 0c 6a 47 3e 72 44 cf bd 52 76 42 3d
       -0.18977249 0.19474047 -0.10120477 0.04747612
0003d0 02 39 7a bd ee de 6c bd 1e 3d 5e 3e 5b 61 8c bd
       -0.061089523 -0.05782979 0.21703002 -0.068545066
0003e0 d2 0e 54 be 71 ea bb 3d 02 c7 4c 3e a0 59 0b 3d
       -0.20708779 0.091755755 0.1999779 0.03402102
0003f0 d6 48 55 3d 88 14 9e bd f5 eb c8 bd 36 3d 02 3e
       0.052071415 -0.0771876 -0.0981063 0.12718663

block1.0.bias f4 [32]
000000 be 15 85 be 3b 3a f5 bd 19 73 1e be 74 76 21 be
       -0.2599315 -0.11973997 -0.15473594 -0.15767843
000010 fe 8d 67 3c bb 51 85 bd 48 9e 28 3d 01 08 a7 be
       0.014132975 -0.065097295 0.041166574 -0.32623294
000020 75 38 f9 3d a1 4c 2f be e0 3d 37 3e 1a 84 81 3d
       0.121689714 -0.17119075 0.17894697 0.063240245
000030 a2 ef 0b 3e 46 da 3a 3e eb 12 be bd 82 14 c5 3d
       0.13665631 0.18247327 -0.09280952 0.09623052
000040 b8 20 38 3e 01 69 73 ba 32 77 97 3d 31 ea 3e bd
       0.17981231 -0.0009285361 0.073957816 -0.04661006
000050 48 f0 75 3e 10 5f 9b 3d 24 bf 84 bd a3 92 0d be
       0.24017441 0.07586491 -0.0648177 -0.13825469
000060 86 8a 2f bc 1f cf 85 be 15 08 20 3e 17 23 41 3e
       -0.010714179 -0.26134583 0.15628083 0.18861042
000070 1e af 26 3d 1d ca 49 3e 14 fb 40 be a0 45 a5 3d
       0.04069435 0.19706006 -0.18845779 0.080699205

block1.1.weight f4 [32]
000000 ce a3 63 3f 56 c5 93 3f 16 ee 7a 3f 52 cf 72 3f
       0.8892182 1.1544597 0.9801954 0.94847596
000010 c9 d1 71 3f 90 62 90 3f c1 4b 7d 3f c5 4e 93 3f
       0.9446073 1.1280079 0.98943716 1.1508414
000020 2b 08 7f 3f 76 00 69 3f 93 bc 86 3f f3 e1 88 3f
       0.9962184 0.9101633 1.0526298 1.0693954
000030 01 7f 7f 3f 3e 6f 77 3f e7 ce 80 3f 73 1f 7e 3f
       0.9980317 0.9665412 1.0063142 0.9926674
000040 aa f4 79 3f a3 12 6e 3f 74 8d 77 3f f8 73 86 3f
       0.9763895 0.9299719 0.96700215 1.0504141
000050 9c 30 84 3f 71 8c 72 3f b8 6a 67 3f 52 a8 83 3f
       1.0327334 0.94745547 0.90397215 1.0285742
000060 94 6a 84 3f 68 cd 79 3f 13 1e 73 3f 2d 2c 78 3f
       1.0345025 0.9757905 0.94967765 0.96942407
000070 00 12 6f 3f 69 2b 79 3f 02 9a 6b 3f 45 a5 73 3f
       0.9338684 0.97331864 0.9203187 0.95174056

block1.1.bias f4 [32]
000000 ad f2 1e be c0 75 35 be 86 4c e9 bd f2 8b 8d be
       -0.15522261 -0.177207 -0.11391549 -0.27645832
000010 b3 ff 14 bd b4 30 9c be 19 3e 97 be 1a 81 c8 bd
       -0.036376666 -0.30505908 -0.29539564 -0.09790249
000020 75 7f 18 be c7 4a 3e be 70 00 25 be 55 5b 63 be
       -0.14892371 -0.18583213 -0.16113448 -0.22202809
000030 e3 2f 50 bd 39 4e 03 bd eb ae 97 be b1 89 8a be
       -0.05082692 -0.03205702 -0.2962564 -0.27058175
000040 25 20 98 bd f1 a6 62 be 78 f4 25 be 5e ab 14 be
       -0.07428006 -0.22133996 -0.16206539 -0.14518496
000050 0c fd 13 be c8 64 87 be 53 49 5a be ae 81 0c be
       -0.14451998 -0.26444077 -0.21317033 -0.13721344
000060 c1 05 1c be 2a 9e 97 be 97 e9 7f bd 4c a7 fc bc
       -0.1523657 -0.29612857 -0.062478628 -0.030841492
000070 12 06 3c be d1 63 cd bd a5 a5 66 be 8b 69 7c be
       -0.1836169 -0.10028804 -0.22524126 -0.24649636

block1.1.running_mean f4 [32]
000000 84 22 0d be f3 e8 e1 bd c0 25 84 bf 33 60 da be
       -0.13782698 -0.1103076 -1.032402 -0.4265152
000010 0f c1 31 bd 32 70 ad bd aa bc 99 bd 17 e0 ab be
       -0.043397006 -0.08468665 -0.07506688 -0.33569404
000020 49 f2 fe bd 1e 57 aa be fa b0 8e 3f 4f 4f 9a 3e
       -0.12448556 -0.3326959 1.1147759 0.30138633
000030 72 fc 14 3f 1f 10 0e bd 7b 30 28 bf ca 76 84 3f
       0.581977 -0.034683343 -0.65698975 1.0348752
000040 98 69 51 3f 2a 63 73 3f ef 2d 70 3e 8f 9b ca 3b
       0.8180175 0.9507319 0.23455022 0.006183095
000050 e7 36 48 3f b0 fa 91 3e 5a 16 99 3e 6a 5f 1e bd
       0.78208774 0.28511572 0.29899865 -0.038665213
000060 2e 5c b1 be 4d 58 d9 bf e8 e8 e5 bd a3 f6 77 be
       -0.3464064 -1.6980072 -0.11226064 -0.24215178
000070 4b 75 ba 3c be 6e 36 3e 5a 42 d1 be 02 52 32 3d
       0.022761008 0.17815682 -0.40870935 0.04353524

block1.1.running_var f4 [32]
000000 a0 fb ea 3c 04 67 8b 3c 40 c8 0e 3e f4 3d 0d 3d
       0.028684437 0.017016895 0.13943577 0.03448291
000010 dd 42 e4 3c 16 d6 50 3d 67 b0 c3 3c 66 9b 4c 3d
       0.027863914 0.05098542 0.023887826 0.049952887
000020 da b0 27 3d c7 8c 13 3d 12 29 e7 3d 2a 41 3d 3d
       0.040940143 0.036022928 0.112871304 0.046204723
000030 9f 4e 62 3d 2c 0e a8 3c a2 7e a5 3d e1 18 e9 3d
       0.05525076 0.02051457 0.08080794 0.113816984
000040 b4 09 87 3d bc a3 d1 3d 84 50 f7 3c e6 b1 75 3c
       0.065936476 0.10236308 0.03018976 0.014996028
000050 13 36 80 3d 5a 8c 50 3d e5 23 0c 3d e3 03 08 3d
       0.06260314 0.0509151 0.03421392 0.03320683
000060 6c 26 f8 3c 44 2c 80 3e c5 74 e7 3c cc 16 4a 3d
       0.030291758 0.25033772 0.028253922 0.049338147
000070 6d 6c 02 3d 76 a9 75 3d 39 a3 4e 3d 18 29 78 3c
       0.031841684 0.059976064 0.05044863 0.015146516

block2.0.weight f4 [64, 32, 3, 3]
000000 89 15 b7 bd 33 f6 e9 3d 67 dd a1 bd 1c e5 2e bd
       -0.089396544 0.11423912 -0.07903557 -0.042698964
000010 63 78 b8 3d 28 93 bd bd 48 67 03 3d 1f 0d 02 bd
       0.09007337 -0.092565835 0.03208092 -0.031750795
000020 08 c8 67 bd db f0 89 bc 2a 35 33 be 9d 6b 74 be
       -0.05658725 -0.016838482 -0.17500749 -0.23869176
000030 03 b6 55 be 33 b0 49 be 2e 88 1c be 6c 66 54 3e
       -0.20870213 -0.19696121 -0.15286323 0.20742196
000040 24 a2 db bc de 6c 8f be 83 fb 25 3d 2c 76 68 bb
       -0.026810713 -0.28012747 0.040523063 -0.0035470827
000050 ec 30 42 3d 0b 59 5e 3d 37 98 19 3b a3 a2 d4 3d
       0.047409937 0.054284137 0.0023436674 0.10382583
000060 7d a5 08 bd 44 5b 9b bd 06 16 69 ba 80 39 78 3d
       -0.033360947 -0.07585767 -0.00088915264 0.06060171
000070 55 11 1c bd da 5b 97 bc b0 0a 82 3d d4 75 ab bc
       -0.038102467 -0.018476415 0.06349695 -0.020930208
000080 55 86 a8 3d 12 f3 5a bd 9c 41 ce bd db 8f 5a bd
       0.08228747 -0.053454466 -0.10071108 -0.053359848
000090 a4 c3 9e bd 41 25 83 bd 2e 1e 6a 3c db ec 5c bd
       -0.07752159 -0.0640359 0.014289422 -0.05393682
0000a0 51 1f 74 3c 10 14 97 bd ad a6 25 bd 48 ca c2 bd
       0.014900045 -0.073768735 -0.040442158 -0.09511238
0000b0 cd 2d 08 be 9d f7 06 be fa ae 71 bd 29 e3 4e be
       -0.13298722 -0.13180394 -0.05900476 -0.20203842
0000c0 5a 0b 36 be 74 a5 87 3d 2d c1 17 3d 12 a2 b3 bd
       -0.17777768 0.066233546 0.03704946 -0.08771147
0000d0 80 66 93 3c b6 02 3d bb b3 4b c4 3d b8 e2 cb bd
       0.017993212 -0.0028840727 0.09584751 -0.099553525
0000e0 5d e9 93 bd b3 f0 28 3e ec 07 28 3d e1 3a f5 3d
       -0.07222245 0.1649807 0.04102318 0.11974121
0000f0 99 03 59 bd c9 1d e5 bc e8 af bc 3c 1e 17 38 bb
       -0.052981947 -0.027968304 0.023033097 -0.002808995
000100 13 0d 99 bc eb 51 5b bd c1 0a 39 be 8c d4 0c be
       -0.018682992 -0.05354492 -0.18070509 -0.13752955
000110 6b dc b4 bd e0 83 db bd c8 a4 25 be 40 11 d1 bd
       -0.08831104 -0.107185125 -0.1617614 -0.10208368
000120 79 c1 47 3d b3 00 a9 3b 19 d3 6f 3d f3 10 b6 3d
       0.048768494 0.005157554 0.058550928 0.088899516
000130 ce 3a dd 3d ee 95 6f 3d 79 42 79 3c 73 41 00 bd
       0.10802232 0.058492593 0.015213602 -0.031312417
000140 cf a2 20 bd 98 72 a9 3d ca cf fd bc 50 ea 94 bd
       -0.039217766 0.0827381 -0.03098287 -0.07271254
000150 3c 18 f3 bc d5 3c 04 3d 62 81 32 bd e2 0a c5 bd
       -0.029674642 0.032284576 -0.04358042 -0.09621216
000160 c4 d0 6d bc dc d6 65 bc 7a 50 8b bd 18 85 9b bd
       -0.014515106 -0.014028277 -0.06802459 -0.07593745
000170 b3 38 dd bd 04 de 85 bd f2 e8 23 be fe 5c 88 bd
       -0.1080183 -0.06536487 -0.1600683 -0.06658362
000180 6a 0f 09 3d 82 f5 9c bd 96 4c 86 3c b3 4a ba 3d
       0.033461966 -0.076640144 0.01639394 0.09096279
000190 7d dd 97 3d 6d fb 21 bd 43 0e e3 bc f4 35 e1 3d
       0.074152924 -0.03954642 -0.027716761 0.10996619
0001a0 6b ca 61 3d 79 e3 a6 bd e8 4f dd bd a7 d2 ca bd
       0.05512468 -0.08148856 -0.108062565 -0.0990346
0001b0 26 b3 2a be b8 90 f0 bd da a1 45 bd 7f c5 f0 bd
       -0.16669902 -0.11746353 -0.048250057 -0.117564194
0001c0 28 b0 f8 bd 73 88 3f bd d2 6f 12 bb 20 90 9f bd
       -0.12142974 -0.046760987 -0.0022344482 -0.077911615
0001d0 c7 cf c8 3c cc 35 51 3c 23 a1 f2 3a a9 ae fc 3b
       0.024513138 0.012769174 0.0018511157 0.007711251
0001e0 ed 17 27 bd 66 f6 1f 3d f9 30 04 3c 1a 7b 11 bc
       -0.0407943 0.039053343 0.008068317 -0.008879447
0001f0 13 ae 76 bd 09 5e 89 bd 34 6a 9c 3d a5 b4 93 3d
       -0.060224604 -0.06707389 0.07637444 0.072121896
000200 72 ff ad 3c 70 e9 8f bd 2e 1b f5 3c 68 df 48 bd
       0.02123997 -0.070269465 0.029920187 -0.04904118
000210 28 ec 6b bc 93 61 5f bc 2d 82 74 bd 1e de 04 be
       -0.014399566 -0.013634103 -0.059694458 -0.12975356
000220 75 61 19 be c4 13 f8 bd b9 99 24 bc a8 3b 63 bd
       -0.14978583 -0.12113145 -0.010046416 -0.055476815
000230 23 a9 10 bd d3 16 87 3d 2c a2 54 3b 04 88 d2 3d
       -0.03531755 0.0659615 0.0032445295 0.10279849
000240 b9 68 4b bd d8 79 d0 bc 48 90 1c 3c 66 39 bf bc
       -0.04966042 -0.025448725 0.009555884 -0.0233428
000250 f4 fa 5a 3c d0 71 31 bd d4 a6 a9 bd 8e 9c 3a 3d
       0.013365496 -0.04332143 -0.08283773 0.04555946
000260 b7 21 3e 3d a1 b0 43 bd a9 7c de bd 08 90 a4 bd
       0.04641887 -0.04777587 -0.10863621 -0.08035284
000270 51 39 c3 bc b1 bb 67 bd 78 52 45 bd 65 36 9e bd
       -0.023831042 -0.05657548 -0.04817435 -0.07725219
000280 6b eb 2a 3d 33 43 99 3d 98 8b ac 3d f6 f3 43 bd
       0.04172842 0.0748352 0.08425063 -0.04784008
000290 c8 01 d2 bd 65 df ef bd 7c 44 37 be 42 32 7c bd
       -0.10254246 -0.11712531 -0.17897218 -0.061571367
0002a0 f1 4b 0d be 25 8c 9b bd a6 67 00 be 95 32 0a 3d
       -0.137985 -0.0759509 -0.12539539 0.033739645
0002b0 3a 7a 63 3c b5 74 ef bd 76 e1 8d bc 31 1f 9b bd
       0.013884122 -0.11692182 -0.017319422 -0.07574309
0002c0 e9 94 d3 bc 4d 9a b6 3d 7a 7e cf 3d 61 b0 15 3e
       -0.025827842 0.08916149 0.10131545 0.14618064
0002d0 02 bc b3 3d 9c 8d 71 3d cd 82 a0 3d a1 8e 00 3d
       0.08776094 0.05897294 0.07837448 0.03138602
0002e0 7f 32 9d bd bb 2b 2f 3d 50 1d e0 bd 61 4f bd bc
       -0.07675647 0.042766314 -0.10943091 -0.02310914
0002f0 4e c1 13 3d 41 2e 0f 3c 21 ee 9a 3d 9c 5a 03 bd
       0.03607302 0.008739055 0.07564951 -0.032068834
000300 ca 05 54 3c 1e 2f 3d bd f7 29 b6 bd 8c e8 18 3d
       0.012940833 -0.046187513 -0.08894723 0.03733115
000310 43 7b 12 bd f2 47 0a bd af 8a b5 3d 8b 90 37 3d
       -0.035762083 -0.03376002 0.088643424 0.04481558
000320 d0 83 b7 bc 9a 6e aa bd c6 8c 02 be 62 47 0e be
       -0.02240172 -0.08321877 -0.12749013 -0.13894418
000330 2c 8b 0e bd 11 00 86 3c 51 86 50 3c 72 5e 23 3e
       -0.034800693 0.016357454 0.012727336 0.15953997
000340 da 43 f1 b9 1f 16 c3 3d e9 7b 54 bd 4a e7 19 bd
       -0.00046017655 0.09525704 -0.051875982 -0.03757409
000350 ab 7c d2 bd 81 58 87 3d ec 84 19 3e 20 68 e9 3d
       -0.10277685 0.06608678 0.14992112 0.113968134
000360 48 9b e0 bc 0a 41 1c bd d6 76 81 3d ee 33 16 bd
       -0.027417794 -0.038147964 0.06321494 -0.036670618
000370 cb 36 a1 bd b0 ed 99 bc 71 5a 88 bd b2 50 02 be
       -0.07871779 -0.018790096 -0.06657875 -0.12726095
000380 08 57 af bd 73 81 53 bd 06 c7 f4 3c dc b0 bc 3c
       -0.08561522 -0.051637124 0.029880058 0.023033552
000390 92 f8 31 bc 62 d3 ad 3d 50 b6 c6 3d fe a6 97 bd
       -0.010862486 0.08487584 0.09702742 -0.07404898
0003a0 73 48 a4 bd db 77 a8 bd 1c fa 8f 3d ca 89 28 3d
       -0.08021631 -0.082259856 0.070301265 0.04114703
0003b0 9e 72 98 3d 5b 75 13 3d 2d c9 e5 3c 8f e7 4b 3d
       0.074437365 0.03600059 0.02805003 0.04978138
0003c0 81 39 ba bd 2d ae f4 bc ab dc c7 bd 79 30 27 bc
       -0.09092999 -0.02986821 -0.09758886 -0.010204428
0003d0 15 5d 01 bc 70 1f 8c 3d fb c9 0b bd 12 98 f5 bc
       -0.007895728 0.06841934 -0.03412817 -0.02997974
0003e0 dc d5 46 3d ed 41 ab bd c8 1d e9 bc 71 9d 31 3d
       0.048543796 -0.08362184 -0.028456584 0.04336304
0003f0 bb 8d 8c 3d 10 fe 22 be 72 01 29 be 7b f1 0f be
       0.068629704 -0.1591723 -0.16504458 -0.14056961

block2.0.bias f4 [64]
000000 1e a7 87 3d 6b 2c 34 3e 97 f0 51 3d f4 10 87 3c
       0.06623672 0.17595069 0.051254835 0.016487576
000010 a3 ea 22 3e 0a c4 70 3a ec e4 a1 bd ac 81 6e 3c
       0.1590982 0.00091844855 -0.079049915 0.014557283
000020 bb 40 98 3d 62 27 de bd eb 74 97 bd b6 e7 0b 3e
       0.07434221 -0.108473554 -0.07395347 0.1366261
000030 30 ae 59 bd df 32 1e bd c8 14 c2 3c 7d 3a 02 bd
       -0.053144634 -0.038622733 0.02369155 -0.03179406
000040 44 b8 83 3d d0 48 4e bd 29 de 3a bd 5b ec 36 3c
       0.0643163 -0.05036241 -0.045622025 0.01116475
000050 7a b0 c1 bc aa de 6e bd 0a 11 0a 3d ed ed 0b bc
       -0.02364372 -0.058317818 0.033707656 -0.008540613
000060 ee 95 8b bc 15 11 2e 3d 71 ee 52 3d 48 6d 09 be
       -0.017039265 0.04249676 0.051496927 -0.13420594
000070 aa 9f 39 bd e6 e9 bd 3c b3 09 79 3d fa 6c c2 bc
       -0.045318283 0.02318282 0.060800266 -0.023733605
000080 6e 5b 83 3d 10 66 1c bb 22 a9 c8 bc cd 79 4e bd
       0.06413923 -0.0023864545 -0.024494711 -0.050409127
000090 0b ab 9a bc 60 13 fb 3d e7 c1 94 3c a2 ad 4a bd
       -0.018880388 0.12259555 0.018158866 -0.049481995
0000a0 df 1a 16 3e 18 70 69 bd 38 0f e4 3d 3c a6 68 bb
       0.14658688 -0.056991667 0.11135715 -0.0035499474
0000b0 8e 45 5d bd cc a8 93 bd 37 95 b3 3d 5f 2f cc bd
       -0.05402141 -0.0720993 0.08768695 -0.09969973
0000c0 f3 67 c8 bd 4b 5a 12 3e ad fa 0a bd cc 8c 26 3e
       -0.09785452 0.14292257 -0.03393047 0.16264647
0000d0 7f 95 0c bd 7f 48 42 bd e4 06 fb bc 31 c0 9b 3d
       -0.034322258 -0.04743242 -0.030642934 0.07605017
0000e0 20 12 8f bc ea 06 15 bd 80 b4 00 bd ee 76 34 bc
       -0.017464697 -0.036383547 -0.03142214 -0.011014683
0000f0 15 00 e6 bc 23 bf 39 3d bd 62 84 bd fc 91 41 3c
       -0.028076211 0.045348298 -0.06464145 0.011814591

block2.1.weight f4 [64]
000000 76 88 82 3f 03 1a 7b 3f b1 46 67 3f 8e ea 77 3f
       1.0197895 0.98086566 0.9034224 0.9684228
000010 b1 9d 7b 3f 31 e8 69 3f 4d 92 6b 3f c0 30 76 3f
       0.98287493 0.9136992 0.9202011 0.96168137
000020 59 24 8d 3f d1 bc 80 3f 07 4b 50 3f 84 04 7b 3f
       1.1026717 1.0057622 0.8136448 0.98053765
000030 6a d7 84 3f 91 b6 6a 3f d0 a5 83 3f 5a e0 75 3f
       1.0378239 0.91684824 1.0284977 0.9604546
000040 aa 00 98 3f 9e 33 8c 3f fc 86 7c 3f b2 e7 67 3f
       1.1875203 1.0953252 0.9864347 0.90587914
000050 21 8f 85 3f d5 a3 58 3f fe 5c 68 3f 3a 0e 6d 3f
       1.0434304 0.8462499 0.90766895 0.92599833
000060 af 97 6c 3f e6 09 87 3f a1 d9 7e 3f 5c 08 5c 3f
       0.9241895 1.0549896 0.99550825 0.85950255
000070 80 12 75 3f fc fc 59 3f ad 0f 57 3f c1 e0 84 3f
       0.95731354 0.8515165 0.84008294 1.038109
000080 44 8b 5f 3f fe d7 71 3f 86 d0 74 3f 71 dd 6a 3f
       0.8732188 0.944702 0.9563068 0.9174414
000090 03 e4 64 3f af 62 4f 3f 0e 79 56 3f 44 ba 78 3f
       0.8941042 0.81009954 0.83778465 0.9715922
0000a0 0c 28 79 3f f1 62 63 3f c1 86 6c 3f 6d 58 7d 3f
       0.9732673 0.8882285 0.9239312 0.9896305
0000b0 b3 3c 3c 3f 3a 5b 87 3f 08 e9 82 3f 64 d0 71 3f
       0.7353012 1.0574715 1.0227365 0.94458604
0000c0 cf 7d 6d 3f 9c bf 8e 3f 4f e5 73 3f f9 fc 5d 3f
       0.92770094 1.1152225 0.9527177 0.8671413
0000d0 2e d4 60 3f 6f 38 7c 3f ac 4d 4b 3f ed 20 51 3f
       0.8782376 0.9852361 0.7941539 0.81690866
0000e0 be 3a 7e 3f 93 d4 6e 3f c7 2a 61 3f eb c4 73 3f
       0.99308383 0.9329311 0.879559 0.9522235
0000f0 29 d9 73 3f 78 f3 87 3f ff ba 76 3f 50 9d 72 3f
       0.95253235 1.0621176 0.96379083 0.9477129

block2.1.bias f4 [64]
000000 5c 3c 73 be 0b fa 9e be 42 ce 91 be 59 14 8c be
       -0.23753494 -0.31050143 -0.28477675 -0.27359274
000010 e9 09 71 be 1a e2 ad be e1 c1 c4 be ea 5f 81 be
       -0.23538937 -0.33961564 -0.38429168 -0.2526849
000020 70 18 de be 16 3e b9 be a4 9c c0 be 24 c4 da be
       -0.4337802 -0.3618018 -0.37619507 -0.42727768
000030 76 46 00 bf ff ae 9e be 0d cb 7c be a8 40 e6 be
       -0.50107515 -0.30992886 -0.24686833 -0.44971204
000040 78 75 f9 be 18 d2 aa be 8d 51 d5 be d8 30 ae be
       -0.48722434 -0.33363414 -0.4166378 -0.3402164
000050 b2 d3 cf be 78 02 00 bf b1 df cb be 39 a4 d7 be
       -0.40591198 -0.50003767 -0.398191 -0.4211748
000060 85 6d d8 be 5e fb 54 be 5b e1 b2 be 33 0b e1 be
       -0.42271057 -0.20799014 -0.34937558 -0.43953857
000070 ce f0 c9 be 57 96 99 be 50 f8 f8 be 9c 0a d2 be
       -0.39441532 -0.29997513 -0.48626947 -0.4102372
000080 6a 6e db be 40 9f e2 be 8f e1 c6 be 2f dd d7 be
       -0.42857677 -0.44262123 -0.38843963 -0.42160937
000090 ba fc c8 be 17 fd de be 14 fb a0 be f2 08 94 be
       -0.39255315 -0.43552467 -0.31441557 -0.28913075
0000a0 9e 79 a4 be 7a e7 b2 be 60 b7 cb be fc 77 8a be
       -0.32124037 -0.34942228 -0.39788342 -0.27044666
0000b0 8c df f1 be 08 52 ee be c3 b5 a0 be fb 0b 63 be
       -0.47240865 -0.4654696 -0.31388673 -0.22172539
0000c0 d8 02 a5 be 88 5e 00 bf 3d ec ca be 1c 87 e7 be
       -0.32228732 -0.50144243 -0.3963336 -0.45220268
0000d0 97 e9 b1 be 04 dd 12 bf ec cb bb be 5c a3 df be
       -0.34748527 -0.57368493 -0.36679018 -0.4367932
0000e0 84 4e 9d be c9 a4 c4 be f2 91 07 be 82 34 9b bd
       -0.30723965 -0.3840697 -0.13239267 -0.075783744
0000f0 91 75 b2 be 8e 3a 21 bf 7e 32 03 bf 3b ca fa be
       -0.3485532 -0.6297997 -0.5124892 -0.48982415

block2.1.running_mean f4 [64]
000000 b6 a9 26 c0 bf 15 42 bf 31 00 ce bf d1 e3 73 3e
       -2.6041083 -0.7581443 -1.6093808 0.23817374
000010 c9 7b a3 bf fc 62 22 bf d7 88 20 3f 68 1c 9f bf
       -1.2772151 -0.6343229 0.627088 -1.2430544
000020 0c eb 62 3e 0c 03 2a bf 9a 16 b0 3f 84 ab 29 bf
       0.22159976 -0.664109 1.3756897 -0.6627734
000030 c0 d2 64 bf 2e 82 20 3d 3c ab 0f 40 2a 5c 59 bf
       -0.8938408 0.03918665 2.2448263 -0.84906256
000040 7f e4 21 bf f0 b6 9c bf e9 09 7e bf 14 67 2e bf
       -0.6323928 -1.2243328 -0.9923387 -0.68126035
000050 64 b1 06 3f 01 43 a5 bf 71 4d 59 40 cb 10 13 40
       0.52614427 -1.2911073 3.3953516 2.2979
000060 67 71 1c 40 15 7c 6c be 19 4f 0d be b4 0c 91 bf
       2.4444215 -0.23094209 -0.13799705 -1.1332002
000070 9d ea c1 be 83 3c 43 bf 7c 88 45 3f 93 74 87 bf
       -0.37874308 -0.7626421 0.77161384 -1.0582451
000080 d0 6f 13 be 8d a5 e2 be a3 91 72 c0 50 01 99 3f
       -0.14398122 -0.4426693 -3.790139 1.1953526
000090 72 4f db bf 47 4b c3 3f 24 55 2f bf 1a 41 80 bf
       -1.713362 1.5257348 -0.6848929 -1.0019867
0000a0 7d a2 4d bf 7f 99 01 40 3a 0f e2 bf dd 76 df bf
       -0.8032606 2.0249937 -1.7660897 -1.7458149
0000b0 aa e9 43 3f 4d 8c b0 bf f5 e2 d0 bf 4f 91 d6 bf
       0.7652842 -1.3792816 -1.6319262 -1.6763095
0000c0 9e 50 e5 bf 16 73 2e bf 05 fb 0b bf 52 5e 98 3f
       -1.7915227 -0.6814436 -0.546799 1.1903784
0000d0 50 76 01 c0 6e 18 1a bf 55 38 54 bf 2f 89 11 bf
       -2.0228462 -0.60193527 -0.82898456 -0.5684995
0000e0 19 fc 5c 3f 0e dd 15 3f 08 0f 30 c0 06 56 28 c0
       0.8632217 0.5854043 -2.7509174 -2.6302505
0000f0 6f c4 e7 3e 89 eb 1e bf a4 f3 e4 3e c0 c0 98 3e
       0.45267054 -0.6207815 0.44717133 0.29834557

block2.1.running_var f4 [64]
000000 ec 99 eb 3f b9 98 dd 3f 38 e9 2f 40 cf 93 9b 3f
       1.8406348 1.7312232 2.7486095 1.2154483
000010 2d 2d a0 3f 8c fa 7e 3f 09 ef b3 3f c6 0c 94 3f
       1.2513787 0.99601054 1.4057323 1.1566398
000020 7d b6 8d 3f 0d 42 55 3f e1 97 a2 40 56 83 8a 3f
       1.1071316 0.8330391 5.08104 1.082133
000030 e0 0b 3c 3f 53 fa 0c 40 ca b5 df 3f b4 17 d2 3f
       0.7345562 2.2027786 1.7477353 1.6413484
000040 69 e7 3d 3f bd 64 dc 3f 78 f8 d5 3f 72 52 b0 3f
       0.7418123 1.7218243 1.6716452 1.377516
000050 8b 75 1d 40 4b a5 dd 3f d6 dd af 3f 96 d1 d9 3f
       2.4602993 1.7316068 1.3739574 1.7017086
000060 18 5b db 3f 69 bc 05 40 b9 b6 4e 3f 95 4f 10 40
       1.7137175 2.0896246 0.8074756 2.2548573
000070 9e 55 ea 3f 6b 49 33 40 4a 8d 0d 40 ee 62 6b 3f
       1.8307378 2.801356 2.2117486 0.9194783
000080 30 a8 9f 3f 57 91 df 3f c7 89 58 40 bf 88 ae 3f
       1.2473202 1.7466229 3.3834093 1.3635482
000090 6f 06 14 40 59 10 ea 3f 95 93 a8 3f de 3c e5 3f
       2.3128927 1.8286239 1.3170038 1.79092
0000a0 64 b1 ea 3f 36 3c 09 40 95 73 57 40 ce 61 a9 3f
       1.8335385 2.1443 3.3664296 1.3232973
0000b0 26 80 dd 3f b5 04 91 3f 5c a7 9c 3f fd fb 47 40
       1.7304733 1.1329561 1.2238574 3.1247551
0000c0 d4 33 f7 3f 48 6f c3 3f 11 22 3d 3f 2b b2 b4 3f
       1.9312692 1.5268335 0.73880106 1.4116873
0000d0 bf ff cf 3f 2e 55 67 3f e2 64 dc 3f bd c4 9d 3f
       1.6249923 0.9036435 1.7218287 1.2325665
0000e0 69 cc fd 3f d8 24 82 3f a1 37 22 40 57 e4 30 40
       1.9828006 1.0167494 2.5346453 2.7639368
0000f0 bd dc ee 3f a3 09 54 3f 82 41 67 3f a1 8f 82 3f
       1.8661114 0.82827204 0.9033433 1.0200082

block3.0.weight f4 [128, 64, 3, 3]
000000 1b 59 7e 3d 1c c3 a1 3c d9 cb c1 3c 43 92 74 3e
       0.062096696 0.019746356 0.023656772 0.2388392
000010 88 eb 48 3e 9b a9 14 3e b8 31 9f 3d ae 54 a1 3d
       0.19621098 0.14517824 0.07773155 0.078774795
000020 b6 de be bc 9d 59 33 bc 47 16 d5 3d f0 4c 0e bc
       -0.023299556 -0.010946658 0.1040464 -0.0086853355
000030 48 88 9c bd f5 e8 b2 bd 1d 6d 93 bd 64 bd 9d bc
       -0.07643181 -0.08735839 -0.07198546 -0.019255348
000040 03 9a 7e 3c 6b 62 83 3c 62 87 38 3d dd 0b ae bd
       0.015539649 0.01603814 0.045050986 -0.084983565
000050 64 a4 91 3c d3 03 26 bd e7 90 62 be ef 25 4e bd
       0.017778583 -0.04053099 -0.22125588 -0.050329145
000060 78 1e 94 bb 91 7f 72 bd 7d 60 0c 3d 58 f6 b9 3d
       -0.0045202337 -0.059203688 0.034271706 0.090801895
000070 32 dd fe 3d 81 a6 23 3d b7 ff a8 bb e3 15 ab 3d
       0.124445334 0.039953712 -0.0051574367 0.08353784
000080 d6 15 87 bc 5c 4f 78 3d 03 0f d0 3d 4d 64 f9 bb
       -0.016489904 0.060622558 0.10159113 -0.0076108337
000090 f0 62 ad bd ca e9 83 be 3d c4 89 bd 8b dc d4 bc
       -0.084661365 -0.25764304 -0.067268826 -0.02598407
0000a0 66 24 ef bd 1c 0a 80 3c ea fd 08 be 8c 42 f1 bd
       -0.11676864 0.01562982 -0.1337811 -0.11780271
0000b0 99 c7 2b bd 2e be 66 bd 7a 3b 34 3d 53 31 6e bd
       -0.041938398 -0.056333713 0.044002034 -0.058152508
0000c0 53 4a 6f bd da 5c de bc 5a 18 12 bd e8 a3 79 bd
       -0.05842049 -0.027143884 -0.035667755 -0.06094733
0000d0 24 bf 69 3c 3d 83 01 bd 58 52 56 3d b8 2b 46 bd
       0.014266763 -0.0316193 0.052324623 -0.048381537
0000e0 96 df dc bc ff 5b 47 3e 18 83 c8 3d 61 e1 35 3e
       -0.026962083 0.19468687 0.09790629 0.17761756
0000f0 40 da a0 3d 46 6b 02 3e 1d b5 a6 bc 16 78 23 bd
       0.07854128 0.12736234 -0.020350033 -0.039909445
000100 8d 48 44 bd e8 ca 29 bd b2 3f f4 3d 9e f0 39 3d
       -0.047920752 -0.041453272 0.119262114 0.045395486
000110 e8 04 af 3d fb e6 22 bc f1 b2 4d bd 06 03 f6 39
       0.08545858 -0.009942765 -0.05021948 0.0004692303
000120 40 a0 ac bd 76 df 9a bd 6b f0 42 bd 68 a9 6b bd
       -0.08429003 -0.07562153 -0.04759256 -0.057534605
000130 1f e5 f7 bd 4e 4b bf bd 1e 59 04 be 49 22 43 bd
       -0.12104248 -0.09340535 -0.1292462 -0.04764012
000140 e3 c7 24 bd b8 ab bf 3d c5 4b 16 3d a2 76 88 3d
       -0.04022969 0.093589246 0.036693353 0.066632524
000150 6b 32 05 3e 7a 0f 6e 3d d9 41 20 3e d3 5c 6e 3d
       0.13007514 0.05812023 0.15650119 0.058193993
000160 13 8e fb 3d c8 35 e5 3d 23 99 00 be 79 59 9b 3c
       0.12282958 0.111918986 -0.12558417 0.018963562
000170 d1 12 89 bd 5f ec b7 bd 90 52 7a bc 42 90 ec bd
       -0.06693042 -0.08980631 -0.0152784735 -0.115509525
000180 29 1b 6b bd 5b 2f a0 bd e7 84 8c bd b1 6c 58 bd
       -0.05739895 -0.07821532 -0.068612866 -0.05283803
000190 1f 7e 33 bd f0 55 83 bd 56 4a 30 3d a8 76 82 3d
       -0.04382145 -0.06412876 0.043039642 0.06370288
0001a0 8f 74 3a 3c c2 a7 42 3d 37 c3 21 3e 3d 61 21 3d
       0.011380329 0.047523268 0.15797125 0.039399374
0001b0 d0 f3 56 bc 74 ae df bb 60 97 7c 3c 62 1d 39 3e
       -0.013119653 -0.0068262164 0.01541695 0.18077615
0001c0 50 d0 22 3e c2 47 ca 3d 22 e6 ec 3c 95 fa fc 3c
       0.15899777 0.09876968 0.02891833 0.030881206
0001d0 f7 2b 89 bd b4 5e ed ba a4 5f 8e bc 6d 1c a5 bc
       -0.06697839 -0.0018109889 -0.01737959 -0.020155156
0001e0 1e 64 80 3d 83 7a 94 3d 92 65 ed 3d f9 9f 94 3c
       0.06269096 0.0724993 0.115916386 0.018142687
0001f0 4d c3 c6 bd f6 b1 80 bc 91 04 ca bd c2 6a 6c 3d
       -0.097052194 -0.015709858 -0.09864152 0.057719
000200 84 3e 8c 3a 61 61 d0 3c 31 65 da 3d 7b f2 c1 3d
       0.0010699783 0.025437059 0.10663832 0.094700776
000210 eb 3a cd 3b 05 95 1c 3d 07 93 83 bc e1 05 bc bd
       0.006263127 0.038228054 -0.016061319 -0.09180809
000220 97 01 d2 bc cb ec 83 3c 16 3a d2 3d c1 63 b1 3d
       -0.025635524 0.016104123 0.10264985 0.08661605
000230 5c d9 2a 3e e9 b6 e0 3c 91 dc 57 3c 0d 4f d1 bb
       0.16684479 0.027430968 0.013175146 -0.0063875974
000240 fe 08 c8 3d e0 65 07 bd b0 bf f8 3d cb 86 59 bd
       0.0976734 -0.03305614 0.121459365 -0.053107064
000250 72 f8 0b be 7a 5a 30 bd a3 29 cf bd 0f f1 ea bd
       -0.13668993 -0.043055035 -0.101153634 -0.114717595
000260 9e 02 d1 bd 38 14 4f 3d 91 60 c5 3b 6e 94 a4 3d
       -0.10205577 0.05055639 0.0060234745 0.08036123
000270 72 ea 5a bd 7b 3b 2a be d2 6b d9 b9 fc e3 05 3c
       -0.05344624 -0.16624252 -0.00041469798 0.0081720315
000280 59 4d c1 bd 30 4f a8 bc 40 39 1a bd 93 34 0d 3c
       -0.09438581 -0.020545572 -0.037652254 0.008618492
000290 c3 ab f8 3b b4 61 31 bb 73 c4 25 bc 62 04 8a 3c
       0.007588835 -0.0027066292 -0.010117638 0.016847793
0002a0 c5 41 9f bc 0e 43 5b bd 40 01 22 bd 58 8d 86 bd
       -0.019440541 -0.053530745 -0.039551973 -0.06569928
0002b0 7f 7d 9e bc 42 3d 08 bd be 4c 3c bd e8 d9 ba 3c
       -0.01934695 -0.033261545 -0.045971625 0.022808984
0002c0 3c 19 31 3d 84 00 b1 ba 80 c4 c8 bc b2 e0 d3 bc
       0.043236956 -0.0013504182 -0.024507761 -0.025863979
0002d0 c2 a9 d1 bd 5b e5 e9 bd 4b ad 2a be de 22 f7 3c
       -0.10237457 -0.11420699 -0.16667669 0.030167993
0002e0 48 3a 1f bd 4d 41 2b bd 5f a4 97 3c 2b 11 7f 3d
       -0.03887394 -0.041810323 0.018510995 0.062272232
0002f0 91 c3 06 bd df e8 30 be bb 68 03 bd 47 e4 2a bd
       -0.03290135 -0.17276333 -0.0320823 -0.04172161
000300 57 0f 83 bd c8 be 7e bd f9 c8 b5 bd e1 e9 b9 bd
       -0.0639941 -0.062193662 -0.08876223 -0.09077812
000310 b6 33 b5 3d 9d 5f 86 bd 4b 87 25 bd 18 73 a7 3d
       0.08847754 -0.065612055 -0.04041223 0.08176249
000320 30 97 8f bc 37 2f 29 be aa 51 8d 3b 54 b6 04 be
       -0.017528147 -0.16521917 0.0043127136 -0.12960178
000330 f9 c7 20 bd 09 46 8c 3d 55 56 a6 bd 89 95 a9 bc
       -0.03925321 0.06849296 -0.08121935 -0.020701187
000340 4a 20 a8 3d c6 0b 14 3c a7 bb 84 bd c7 a5 5f bd
       0.08209284 0.00903601 -0.06481104 -0.054601457
000350 19 59 8c bd 04 a8 27 3c 20 af 4e bd cc e3 1f be
       -0.068529315 0.010232929 -0.05045998 -0.15614241
000360 30 d0 1b bd 96 97 78 bb d3 35 8d bc 6b 1b 06 be
       -0.03804034 -0.003793215 -0.01723758 -0.13096397
000370 e8 74 95 39 ee 0f aa bd 36 c1 32 bd 29 9b ca ba
       0.00028506597 -0.083038196 -0.04364129 -0.0015457618
000380 16 1e ed 3c 98 21 57 3d fa 2f 5d 3d e6 f3 80 3d
       0.02894501 0.052522272 0.054000832 0.0629652
000390 3f a8 0c 3e 75 06 e3 3d 67 16 e8 3d f0 ff 06 3b
       0.13736056 0.11085216 0.11332398 0.0020599328
0003a0 20 76 77 3d b6 06 5a bd 87 cd 95 3d 96 b2 08 3e
       0.060415387 -0.053229056 0.07314592 0.13349375
0003b0 7d d3 da 3d 0e 15 17 3e 0b 60 e1 3d 98 44 1d 3e
       0.106848694 0.14754125 0.11004647 0.15358198
0003c0 7d 89 9f 3d 9a 9e d7 3d ab 02 e1 3d 08 be 9c bd
       0.07789896 0.10528298 0.10986837 -0.07653433
0003d0 d9 c4 0f 3e 9c 6e 25 3d 54 a6 77 3b d7 ea e0 3c
       0.14039935 0.04038869 0.0037788348 0.02745573
0003e0 04 b2 27 3d d6 72 b4 bd 8e 6d 83 3a 59 82 70 bd
       0.040941253 -0.08810966 0.0010027157 -0.05871806
0003f0 67 8f 6a 3d f3 0f 14 3e 6f 80 67 3c 0e cc 1c 3e
       0.057265665 0.14459209 0.014129742 0.15312216

block3.0.bias f4 [128]
000000 ec 21 c9 bc 12 39 c4 bc 9e b2 ce bc 40 b8 46 bd
       -0.024552308 -0.023952994 -0.025231656 -0.04851556
000010 5b df c7 3c 56 af 81 bc aa c8 ab 3c cc be 4a b9
       0.024398496 -0.015830677 0.020969708 -0.00019335299
000020 f4 e1 49 bc 89 b6 b4 3c 48 f6 fc 3c 60 91 38 bc
       -0.012321938 0.022059696 0.030879155 -0.011265129
000030 4c bc f2 3c 67 84 a9 bc 69 e6 97 3c bf 27 5d bc
       0.029630803 -0.020693017 0.018542485 -0.013498246
000040 a4 25 d9 3b 81 3e 1c 3d 88 f6 4a bc de c0 73 bc
       0.0066268016 0.038145546 -0.012387879 -0.014877526
000050 8f a8 87 3c 9c dc 0c bd 3c 97 16 bd fc 64 02 bc
       0.016559867 -0.034390077 -0.036765322 -0.007958647
000060 90 04 40 3d 1c 73 b3 bc b2 57 1a bd 05 db 36 3c
       0.04687935 -0.021905474 -0.03768129 0.011160617
000070 c7 ed b5 3c 28 e1 01 bd 8c 86 9b bc 97 39 88 3c
       0.022208108 -0.031708866 -0.018985055 0.016629023
000080 fb cd 41 bc 6f 50 15 bd b2 43 a3 3c 0e 6c 07 3d
       -0.011828895 -0.03645366 0.01992974 0.033062033
000090 2f 7a fe bc ca 48 2c ba 5c bf ca b8 6e bc 88 3c
       -0.031064121 -0.0006572126 -9.667754e-05 0.016691413
0000a0 0c 6a a1 bc 42 75 e9 bc c1 bf 69 3c 91 4d 9b 3c
       -0.019703887 -0.028498296 0.014266909 0.018957885
0000b0 42 89 0f 3d 32 40 eb 3c cc 38 f6 3b 9c f6 9e 3c
       0.03504301 0.028717134 0.007514095 0.019404702
0000c0 9d e8 fa bb 6e 52 44 bc 53 b6 f6 bb 24 aa bb ba
       -0.007657124 -0.011982543 -0.007529059 -0.0014317674
0000d0 f1 8b 84 3b 49 c1 11 3d a8 e8 be bb 32 1d 95 3c
       0.0040450026 0.03558472 -0.0058260746 0.018202398
0000e0 c9 82 ba bc 4c b3 a4 bc 21 9a 3f bd db b4 cd 3c
       -0.022767441 -0.020105027 -0.04677785 0.025110653
0000f0 be a4 c7 bb 6c b6 30 bc c4 7f c1 bc 50 fb c1 bc
       -0.006092637 -0.01078568 -0.023620494 -0.023679405
000100 86 c8 8c bc bc 7e 09 b8 8a 5c da 3b 55 82 2d bd
       -0.01718546 -3.2781376e-05 0.0066638635 -0.042360622
000110 ae 67 c5 bc dd 31 14 bd 8b a3 c0 bb 9e 4f d8 3c
       -0.02409729 -0.036180366 -0.005878871 0.026405152
000120 ea fa 49 3b 61 1c 73 3c 72 b5 05 3c 5e f6 ae bc
       0.0030819722 0.014838309 0.008160936 -0.021357711
000130 e4 0f 27 bd fa 5b 8a 3c 78 d5 87 3c 5c 26 30 bc
       -0.04078664 0.016889561 0.016581282 -0.010751333
000140 90 82 7c 3d 07 c5 fe bc 2e 10 15 bd f8 67 c2 3c
       0.06164795 -0.03109981 -0.036392383 0.023731217
000150 fe f1 11 bd 0a 17 ec 3c ab a0 a2 bc c8 58 9e 3c
       -0.035631172 0.02881958 -0.019852003 0.019329444
000160 cd ff b2 3b bb ed 03 bc 22 f8 32 ba 44 d4 a5 3c
       0.0054626227 -0.008052285 -0.0006827136 0.020242818
000170 2c 06 09 3d b2 e5 b6 3d af 1d 49 3c 2d c7 b1 3c
       0.03345315 0.0893053 0.0122751435 0.02170142
000180 11 d7 33 3c 3f 39 96 bb 46 5e af 3c 17 82 51 3d
       0.010976569 -0.004584461 0.021407258 0.051149454
000190 5b 85 e1 3c 6c 45 49 bc e5 29 fb 3c 8b d5 4b 3a
       0.02752941 -0.012284618 0.030659625 0.0007775656
0001a0 68 8b 66 bd 57 04 e9 3c bb 37 f0 3c 9a 6a b0 b9
       -0.056285292 0.028444452 0.02932345 -0.0003364876
0001b0 fc 61 3a 3c 62 56 06 bd 55 db 51 3d 5c ad ce 3b
       0.0113759 -0.032797225 0.051234562 0.006307287
0001c0 22 30 f6 3c 6b cb 37 bd 92 11 ba bb 88 b2 c6 3c
       0.030052248 -0.04487173 -0.005678364 0.024255052
0001d0 01 e8 28 3c 12 a4 41 3c 34 02 55 3d e3 64 5e bc
       0.01030922 0.011818903 0.052004054 -0.013573858
0001e0 50 fd 26 3d 5e 22 7e 3d f9 1c 47 3c b7 0e 16 3d
       0.04076892 0.062044494 0.012152904 0.036635127
0001f0 23 4a 31 bd ea bd 1f 3d e5 7c 16 3d 86 f8 98 bc
       -0.043283593 0.038999476 0.036740202 -0.018673193

block3.1.weight f4 [128]
000000 62 76 8c 3f b0 e7 90 3f 6f f7 76 3f 31 e5 86 3f
       1.0973628 1.1320705 0.96471304 1.0538694
000010 73 a7 89 3f 24 9d 87 3f 38 80 85 3f 46 c5 87 3f
       1.0754226 1.059483 1.0429754 1.0607078
000020 b5 78 8d 3f eb 34 82 3f 68 44 85 3f d9 89 83 3f
       1.1052462 1.0172399 1.0411501 1.0276443
000030 3b 85 81 3f 96 ac 8f 3f cc 09 81 3f 29 3e 87 3f
       1.0118784 1.1224544 1.0081115 1.0565845
000040 83 05 89 3f 72 85 88 3f 41 69 83 3f 21 4d 83 3f
       1.0704807 1.0665724 1.0266496 1.0257913
000050 5c ea 87 3f 4f 80 8f 3f 30 a8 84 3f d9 bf 82 3f
       1.0618396 1.1211032 1.0363827 1.0214797
000060 4d c2 7f 3f 5b 05 83 3f c8 c5 81 3f 28 a9 87 3f
       0.99905854 1.0236009 1.0138483 1.0598497
000070 c5 f7 82 3f 01 86 85 3f f4 9d 91 3f 21 0d 85 3f
       1.0231863 1.043152 1.1376328 1.0394632
000080 2c ed 86 3f 4a 5f 8c 3f 8e 2e 86 3f 13 90 7f 3f
       1.0541129 1.096658 1.0482957 0.99829215
000090 f6 7b 83 3f ec fd 87 3f 54 04 84 3f b1 69 87 3f
       1.0272205 1.0624366 1.0313821 1.057913
0000a0 a3 e3 7b 3f ea 9e 7a 3f 55 95 82 3f 65 a0 82 3f
       0.9839422 0.97898734 1.0201823 1.0205199
0000b0 aa a1 81 3f e9 5d 86 3f 0d af 83 3f 28 9c 80 3f
       1.0127461 1.0497409 1.0287796 1.0047655
0000c0 04 1b 8b 3f 3b cb 84 3f c6 8e 89 3f 57 5e 7f 3f
       1.086762 1.0374521 1.0746696 0.99753326
0000d0 1a 53 83 3f 07 a2 81 3f b8 4c 89 3f 2a 36 8e 3f
       1.0259736 1.0127572 1.0726538 1.111028
0000e0 78 f1 8f 3f cc 2b 8a 3f 13 d8 84 3f 73 06 88 3f
       1.1245565 1.0794616 1.0378441 1.0626968
0000f0 71 6f 79 3f 68 0a 8c 3f 93 2e 8e 3f 87 8a 7b 3f
       0.9743567 1.0940676 1.1107963 0.9825825
000100 5f 3e 86 3f da 76 85 3f a4 c9 89 3f 13 82 8e 3f
       1.0487784 1.0426896 1.0764661 1.1133446
000110 5e c6 8c 3f 58 21 84 3f 42 3f 88 3f 2c f1 85 3f
       1.0998037 1.0322676 1.0644305 1.0464225
000120 67 2c 88 3f db 27 83 3f 16 45 8c 3f 50 7b 74 3f
       1.063855 1.0246538 1.0958583 0.9550066
000130 fb 13 82 3f 37 15 87 3f d6 de 87 3f 8d 8e 89 3f
       1.0162348 1.0553349 1.0614879 1.0746628
000140 e7 b3 8d 3f e2 0b 8b 3f 3b 60 8b 3f 7f a6 8c 3f
       1.1070527 1.0863001 1.0888742 1.098831
000150 19 57 83 3f 19 51 87 3f 36 34 8c 3f 9b c5 81 3f
       1.0260955 1.0571624 1.0953434 1.0138429
000160 24 15 78 3f f2 c5 8b 3f 20 f1 84 3f e3 ba 83 3f
       0.9690726 1.0919783 1.0386086 1.0291408
000170 3e 33 80 3f 5a b4 84 3f 6a 5a 80 3f e8 01 83 3f
       1.0015638 1.0367539 1.0027592 1.0234957
000180 8a 3a 8b 3f 0b 0b 86 3f e8 a0 85 3f ff 2f 84 3f
       1.087724 1.047212 1.043973 1.0327147
000190 08 8f 86 3f 4b 88 8a 3f c5 88 83 3f c4 06 87 3f
       1.05124 1.0822843 1.0276114 1.054894
0001a0 de 90 89 3f 44 5e 80 3f 58 f6 8c 3f c7 60 8a 3f
       1.0747335 1.0028768 1.1012678 1.0810784
0001b0 f2 b1 84 3f 50 d4 8b 3f 45 cf 81 3f 3b 30 87 3f
       1.0366805 1.0924168 1.0141379 1.0561594
0001c0 c8 83 83 3f ff 36 8f 3f 03 01 7d 3f c3 2b 82 3f
       1.0274591 1.1188658 0.9882967 1.0169605
0001d0 77 b4 72 3f a9 9f 8c 3f 1e a8 8c 3f 7e 20 84 3f
       0.9480662 1.0986224 1.0988805 1.0322416
0001e0 f8 8e 8b 3f 3e c7 89 3f 70 e4 7c 3f 0b 45 85 3f
       1.0903006 1.0763929 0.9878607 1.0411695
0001f0 72 5d 84 3f e8 aa 8a 3f 24 16 82 3f 9b b7 8b 3f
       1.0341017 1.0833406 1.0163007 1.0915407

block3.1.bias f4 [128]
000000 9c 0b 81 be 1c c1 6a be 38 6d 49 be de 82 b0 be
       -0.2520417 -0.22925228 -0.1967057 -0.34474844
000010 1e 00 6f be 61 18 51 be ef f6 57 be fd 11 8a be
       -0.23339888 -0.20419456 -0.21090291 -0.2696685
000020 fc 6a 82 be 96 2c 91 be d6 fb 64 be e7 43 64 be
       -0.25472248 -0.2835433 -0.22361693 -0.22291528
000030 a6 fd 6b be e9 e7 a8 be 0f ed 5f be aa 2e 93 be
       -0.23045978 -0.32989433 -0.21867774 -0.2874654
000040 12 83 8c be e8 18 54 be 4f c5 8d be 00 99 90 be
       -0.2744375 -0.20712626 -0.27689597 -0.2824173
000050 03 bc 59 be 94 02 79 be 38 49 62 be 69 e9 58 be
       -0.21263127 -0.2431739 -0.22098243 -0.21182789
000060 94 83 49 be f2 f1 6a be 76 d2 99 be 22 a5 31 be
       -0.196791 -0.22943857 -0.3004338 -0.1734815
000070 a8 d3 63 be 10 b8 5c be 84 06 83 be e0 c8 8c be
       -0.22248709 -0.2155459 -0.2559091 -0.27497005
000080 e7 45 95 be 73 33 9a be ec 79 6a be 44 40 86 be
       -0.29154894 -0.30117378 -0.22898072 -0.26220906
000090 1b 9d 4e be 7f e1 85 be ec e6 81 be fe df 7d be
       -0.20177118 -0.26148602 -0.25371492 -0.24792477
0000a0 03 51 9e be 2a c7 57 be 64 1e 77 be ac 65 52 be
       -0.30921182 -0.21072069 -0.24132687 -0.20546597
0000b0 98 2b 58 be 42 04 36 be 01 53 53 be ba 6d 72 be
       -0.2111038 -0.17775062 -0.20637132 -0.2367467
0000c0 13 bc 8b be 50 ca 60 be 87 ba 4b be e8 8e 8b be
       -0.27291927 -0.21952176 -0.19895373 -0.27257466
0000d0 ff 78 76 be 68 7e 7e be a1 b5 7f be c2 b0 62 be
       -0.24069594 -0.24852908 -0.2497163 -0.2213774
0000e0 80 85 93 be e8 fb 97 be 51 27 72 be 88 10 81 be
       -0.2881279 -0.29684377 -0.2364781 -0.25207925
0000f0 ef 57 48 be c8 c4 cb be 97 36 66 be 2e e4 6e be
       -0.19564794 -0.3979857 -0.22481762 -0.23329231
000100 77 31 7f be e5 c8 82 be 0e f9 61 be 19 dc 7f be
       -0.24921213 -0.25543895 -0.22067663 -0.24986304
000110 06 5b a4 be ba 81 6e be 23 34 a0 be 18 07 3d be
       -0.32100695 -0.23291674 -0.31289777 -0.18459737
000120 7a c0 9f be 97 62 65 be 99 30 76 be 04 d7 6a be
       -0.31201535 -0.2240089 -0.24041976 -0.22933584
000130 da 22 93 be 96 9f 79 be 74 84 85 be f8 f3 88 be
       -0.28737527 -0.24377283 -0.26077616 -0.26748633
000140 d4 7a a9 be 2a 40 7d be c4 b0 95 be 31 cb 5b be
       -0.33101523 -0.24731508 -0.29236424 -0.2146423
000150 d5 3c 8b be 98 ca 77 be 6c 7f 8e be 73 d6 93 be
       -0.2719485 -0.24198377 -0.2783159 -0.2887455
000160 15 ef 6e be a7 e7 89 be 2b 55 59 be b4 61 5c be
       -0.2333339 -0.2693455 -0.21223895 -0.21521646
000170 5e 24 ae be 2f f4 99 be cf 0d 9b be 7a 79 9b be
       -0.3401212 -0.3006911 -0.30283973 -0.30366117
000180 bd ea 7d be 99 21 99 be f7 6c a6 be 75 02 90 be
       -0.24796577 -0.29908445 -0.3250501 -0.28126875
000190 f0 0b 69 be 05 e7 90 be 9e dd 43 be da 59 97 be
       -0.2275846 -0.28301254 -0.19127509 -0.2956074
0001a0 85 86 80 be 85 53 74 be 2c 3a 93 be ed 93 aa be
       -0.2510263 -0.23859985 -0.2875532 -0.33315983
0001b0 4a 5b 91 be a2 fd 7c be ab 59 87 be e1 1c a0 be
       -0.2838996 -0.24706128 -0.264356 -0.31272033
0001c0 f3 27 7d be 68 39 9a be 8b 0a 80 be fe 00 94 be
       -0.2472227 -0.30121922 -0.25008044 -0.28907007
0001d0 0f 84 4d be 19 f2 98 be a5 af ab be 2b 3a 4f be
       -0.20069908 -0.29872206 -0.33532444 -0.20237033
0001e0 81 0b 80 be 3c 97 9a be 3c 5c 67 be 89 f2 96 be
       -0.25008777 -0.30193508 -0.22593778 -0.29481915
0001f0 f1 8f 7c be bf 65 38 be fd ba 6f be 32 e1 7d be
       -0.24664284 -0.18007563 -0.23411174 -0.24792936

block3.1.running_mean f4 [128]
000000 09 8d cb be c1 e4 b1 3e 3f 56 6c be fa 01 58 3e
       -0.3975604 0.34744838 -0.23079775 0.21094504
000010 d6 6a 5c 3f a4 f4 2b 3f 83 de 3c 3f ae 95 12 3e
       0.8610052 0.67170167 0.73777026 0.14314911
000020 cb 0d 1b 3e 90 ae 03 3f 84 02 65 bd d4 7f 16 bf
       0.1514198 0.51438236 -0.055910602 -0.587888
000030 d6 40 7a 3f d5 bd 14 bf 2c d3 0f 3f 87 5e 59 be
       0.9775518 -0.5810216 0.561816 -0.21227466
000040 c1 41 d3 3e 65 d8 d7 bd 08 9b 92 3f 02 cf a3 be
       0.41261104 -0.10539321 1.1453562 -0.31993872
000050 4d 2c c8 be 87 53 4f 3f fe bd 44 3e 61 34 19 40
       -0.390963 0.8098683 0.19213101 2.393822
000060 7a 7d 87 3f aa 26 4c 3f c0 9e 00 be 44 77 ab 3f
       1.0585167 0.79746497 -0.12560558 1.3395772
000070 83 fc 22 3f ed ad 70 bf ed 12 9d 3c f2 23 9e bc
       0.6366655 -0.9401539 0.019174064 -0.01930425
000080 67 d5 5b 3f c4 d5 63 3c 43 cb 6a 3f 45 4f ba 3f
       0.858725 0.013905946 0.917164 1.4555441
000090 d7 e9 a9 3f 9a eb 0a 3f e5 1f b4 3f 85 05 3d 3f
       1.3274487 0.5426575 1.4072233 0.7383655
0000a0 f4 83 31 3f eb cf d0 3c c0 c0 a9 3e 73 75 eb 3d
       0.6934197 0.025489768 0.3315487 0.11497011
0000b0 4e 07 23 3f aa 9e ef 3f 68 0e 27 3e 90 1f e0 3d
       0.6368302 1.8720295 0.1631409 0.1094352
0000c0 c2 81 92 3f 48 ed 3a 3f c4 99 dc bf 67 ad 3e 3f
       1.1445849 0.7301831 -1.7234426 0.7448334
0000d0 6a 12 e3 3e 35 f8 94 3f 60 83 24 bf f9 c1 25 be
       0.44349986 1.1638247 -0.6426296 -0.16187276
0000e0 40 2f 6e 3f 14 b7 f2 3e 88 c4 1a bf 66 9c a0 3f
       0.9304085 0.47405303 -0.6045613 1.2547729
0000f0 c1 0f ea bf 1e 44 3d 3f 91 86 e3 3f 70 eb 54 3f
       -1.8286058 0.73932064 1.7775441 0.8317175
000100 13 ed 84 3e c1 42 2e 3f a6 74 74 3f 7c 15 00 40
       0.25962123 0.6807061 0.9549049 2.0013113
000110 91 1d c9 3f c6 ab 89 3f 82 01 2c 3f 88 5d 0d 3f
       1.5712148 1.0755546 0.671898 0.5522084
000120 ae be f4 3d ee 1c 43 3f c5 e7 bb 3f 04 c8 35 bd
       0.11950432 0.7621602 1.4680105 -0.044380203
000130 90 ae fd bd a1 32 c8 3e e8 3d 9c 3f d0 b2 6e bc
       -0.12386811 0.39101127 1.2206392 -0.014568999
000140 77 f4 2b be b8 2d 3a 3f f0 a1 8a 3f 4c 69 c0 be
       -0.16792475 0.7272601 1.0830669 -0.37580335
000150 30 28 5f bd 0a b5 b4 3f 07 42 ab 3f 44 ee 09 3f
       -0.054481685 1.4117749 1.3379525 0.5387919
000160 94 27 ea 3f a4 df b2 3e 16 65 24 bf d2 c5 45 3f
       1.8293328 0.3493625 -0.64216745 0.77254975
000170 34 3d 20 bf c7 56 ce 3f cd ea e7 3e d3 c9 da 3d
       -0.6259339 1.6120232 0.45296326 0.10683026
000180 9f d0 92 3f 10 87 aa 3f c6 9e a3 be 0a 27 e2 be
       1.1469916 1.3322468 -0.31957072 -0.4417041
000190 e6 ff b7 3e bf af d1 bd 4a 1b 2a 3f c4 56 ae 3e
       0.35937423 -0.10238599 0.6644789 0.34050572
0001a0 43 61 10 3f d4 f0 68 3f 3c 50 61 bf 7c 74 44 3f
       0.5639841 0.90992475 -0.8801305 0.7674024
0001b0 ad 4a ac 3f 75 56 15 3f 43 21 8a 3d 09 b9 67 3f
       1.3460289 0.5833505 0.067446254 0.90516716
0001c0 61 e7 15 3e 74 b7 81 3f f3 b2 bf 3f b6 69 37 3d
       0.14639045 1.013411 1.4976486 0.04477855
0001d0 7a 71 24 3f 3e c5 de 3f f6 8e 36 be 45 19 65 3f
       0.6423565 1.7403944 -0.17827973 0.89491683
0001e0 e4 ae 17 bf a7 8e ae be c9 a6 0c 3e 4e f6 3f 3f
       -0.59251237 -0.3409321 0.13735498 0.74985206
0001f0 cb a8 17 3f 7e 17 2e 3f 56 2f 91 3f 6e 8e 5a bf
       0.5924193 0.68004596 1.1342571 -0.8537358
