best_emoji_model.pth (torch, 420271 bytes, 22 tensors)

block1.0.weight f4 [32, 3, 3, 3]
00000000: baea c63d e6e0 48ba 595b 6b3d d42a 503d
00000010: 3a3e eabc c48a a93e 986e 4cbe 3fec 4a3e
00000020: 0d8e 143e 998f 74bd 3487 973d 5cf7 af3d
00000030: 2be8 143e 0d3c c7bd 824c 20be 5d7a 10be
00000040: b972 2b3e bc16 b63d 71d4 1fbe d35c df3d
00000050: c404 42be cf9f e53d ff90 3e3e cbc6 49be
00000060: c8f1 59be bdb4 debd b7b6 353c 96fc 2e3e
00000070: 286f 02be 69a1 76be 1b3e 32be d5d5 293e
00000080: 290a d93d dbef 6abd 2697 a33d e9b1 88bc
00000090: 1f67 843d e797 0c3d 5ab4 0bbe c83c c7bd
000000a0: 81df d73d 132d 0ebd 618a 793e 96bd 50bd
000000b0: 1d5f 393e 3d88 713e 4165 cbbd 68f2 98bc
000000c0: 01e3 04be 3a1e 053d 2570 c2bc 0ef9 b93c
000000d0: 4153 c63b 7de0 45be b20e 12be 040c 36bd
000000e0: da50 5a3d 7903 42be 1d78 343e 1aa9 013d
000000f0: b597 c43d 99cb 96bc 1337 1ebe 6620 4c3e
00000100: 3566 ee3d 2cbd afbc 476c 173e d2c3 833d
00000110: 2b15 f73d a795 2abc 3e27 e9bd b7be 41bd
00000120: a3a7 d5bd 4ce1 38bd 609b 4bbd a822 6b3e
00000130: ba07 273d d724 02be dc5d 4b3e 5285 b73d
00000140: 5e12 d2bd 7a56 383e a4f4 073e 6b3f 30be
00000150: 5b59 2f3e ddb4 823d 6ec9 263e 76fd 4f3d
00000160: 9dc7 1c3e f91e 3d3d ea84 3dbd 82d3 033d
00000170: 380d 4b3e c4dd bc3e ca5b 3a3e fd7a 9e3e
00000180: e1c7 b13d 138c 51be 2f09 023e 59fa f53b
00000190: 1da7 2ebd 2c4b 7a3c 3c6e 433d 6aed 233e
000001a0: 0b0c 3d3e 7066 c9bd 6c69 5a3d 0dd7 a53c
000001b0: e24a 173e 72b8 51be 2843 fdbc b148 aa3e
000001c0: 02ed 36bd 7b70 683e 31a6 063e 098b f53c
000001d0: a2b0 cbbd a3f1 743e 1cc7 c23d f1c4 dbbc
000001e0: bc15 913e 1043 fd3d 3102 413e d848 3e3d
000001f0: bc21 213d d923 93bd dca3 1bbe bc2c aebd
00000200: 1e02 13bd dc0c 153e 9de1 963d 523a 973d
00000210: 878f e13d 200c 0abe 2e56 78bd 30d0 1c3e
00000220: 9b0e 30be b4ef 12be 9954 823e d528 24be
00000230: ca39 13be a4fd 84bd e388 70bd e83b 973d
00000240: f0ca 923d a6e0 8a3c 4974 393d 5167 b1bd
00000250: c28c da3c 4ba0 3ebe 7a0d 013e cf7d 43be
00000260: 7513 d6bd 26bb aebd 0297 923d 4f7d 6ebe
00000270: e2c7 753e 6b3a 53bd 1e63 10be 1cea 83be
00000280: 597c c53c 066a 593e 2246 2d3e 8a4e 363e
00000290: 760d 3bbe dd12 633e 2d03 bc3d 5941 853d
000002a0: 4449 93ba f44a 56be 1987 1fbe b892 04be
000002b0: 5e19 a5bd 9ce0 29be a05f 313e a0ba c63d
000002c0: bcec 663c e49a 233e 745a 0bbe a872 003e
000002d0: d841 093e 56ff 49be 46dd 5bbe 384e a13d
000002e0: b28c ba3d acad 573e 2464 193e 5e53 f5bd
000002f0: 9409 64bc a5b0 febb a8c3 fa3d 62d7 9abd
00000300: 8c36 903e 3453 c33d 972b 8abe f440 6c3b
00000310: 5b8c 483e 801a 26be 3476 283d 9e2c 16be
00000320: f837 b4bd af14 89bc 32bd db3d 97ba c63d
00000330: 7994 673c 999e 53bd 0735 c73d fc77 6d3c
00000340: ac5a 9abb 8880 063e 784e eebd 3523 973d
00000350: ec83 973d 81da b63d 5b7f 04be 11d1 86bd
00000360: ae60 60be 4201 6e3d fbaa 233e c93a f23c
00000370: 6607 373e d141 963d 62a2 043e 4629 e2bc
00000380: 9270 32be d4f0 43be 4ca3 c7bd 1d51 24be
00000390: 7cba 303d 8cf2 823d a3d7 57bd 9d3f 313c
000003a0: 1c2b 9639 dee0 833d 1a11 b53d 49a7 913e
000003b0: fdcc 8b3c 6698 123e e6cb 783c 150e 75bd
000003c0: 19a5 a2bd 2ba8 1abe 3013 7d3c 5758 33be
000003d0: 6212 033e 320b 47bd f23a 71be 23a8 ab3d
000003e0: 540c 10be 9d79 5c3d 5b1c 853d dacc 0a3e
000003f0: d809 01be fe72 b63d 4657 6e3c ab5c a63d
0.09712739 -0.0007662907 0.057460163 0.050822094 -0.028594125 0.33113682 -0.19964063 0.19816683
0.14507313 -0.059707258 0.07398835 0.08592102 0.1454169 -0.09728251 -0.15654185 -0.14109178
0.16742982 0.08891055 -0.15608384 0.10906377 -0.1894713 0.11212122 0.18609999 -0.1970474
-0.21283638 -0.10874317 0.011090926 0.17088541 -0.12737715 -0.2408501 -0.17406504 0.16585477
0.10597641 -0.05735765 0.07987814 -0.016686397 0.06464981 0.034324553 -0.13643017 -0.0972839
0.10540677 -0.034710955 0.24369194 -0.050962053 0.18102689 0.23587127 -0.09931422 -0.018670276
-0.1297722 0.03249953 -0.023735115 0.022701766 0.006052405 -0.19323917 -0.14263418 -0.044445053
0.053299762 -0.18946637 0.17623945 0.03165541 0.09599248 -0.01840763 -0.15450697 0.19934234
0.11640588 -0.021452509 0.14787398 0.06433834 0.12064584 -0.010411656 -0.11384438 -0.04730102
-0.10432365 -0.045136735 -0.049708724 0.22962439 0.040778853 -0.12709366 0.19860023 0.08960976
-0.102574095 0.18001738 0.13276917 -0.17211692 0.1712393 0.06382153 0.16287777 0.05077883
0.15310521 0.046172116 -0.046269335 0.03218413 0.19829261 0.36887944 0.18199077 0.30953208
0.08680702 -0.2046359 0.12698816 0.0075066504 -0.04263984 0.015276711 0.04771255 0.16008535
0.18461625 -0.098339915 0.053323194 0.020244146 0.1477466 -0.20480517 -0.030915812 0.33258584
-0.044659622 0.22699158 0.13149334 0.029973524 -0.099457994 0.23920302 0.09510633 -0.026827307
0.28336895 0.12366307 0.18848492 0.046456188 0.039338812 -0.07184572 -0.15199226 -0.08504626
-0.03589069 0.14555687 0.07367251 0.073841706 0.11013704 -0.13481188 -0.060629062 0.15313792
-0.17193072 -0.14349252 0.25455168 -0.16031201 -0.14377514 -0.064936906 -0.058724295 0.07384473
0.071676135 0.016952824 0.045276914 -0.08662284 0.026678447 -0.18615834 0.12602797 -0.19090961
-0.1045293 -0.085317895 0.07157709 -0.23289989 0.2400203 -0.051569384 -0.1410031 -0.2576455
0.024107145 0.21231851 0.16921285 0.17803398 -0.18266854 0.22175165 0.09180293 0.06506605
-0.0011237045 -0.2092703 -0.1557888 -0.12946594 -0.08061479 -0.16589588 0.17321634 0.09703565
0.014094528 0.15977055 -0.13608724 0.12543738 0.13404024 -0.19726309 -0.21471128 0.07876247
0.09108867 0.21062344 0.14979607 -0.11978792 -0.013918299 -0.0077725225 0.1224435 -0.07560612
0.28166616 0.09537354 -0.2698638 0.0036049457 0.19584791 -0.16221046 0.041128352 -0.14665458
-0.08799738 -0.016733496 0.107294455 0.09703558 0.01413452 -0.051664922 0.09726911 0.014493939
-0.004710516 0.13134968 -0.116360605 0.07379762 0.07398209 0.08928395 -0.12939207 -0.06582845
-0.2191188 0.05810667 0.15983193 0.029569047 0.17873916 0.07336772 0.12952569 -0.027607571
-0.17425755 -0.19134837 -0.09747943 -0.16046567 0.043146595 0.063939184 -0.05269588 0.010818389
0.00028642348 0.064393744 0.088411525 0.2844794 0.01706552 0.14315948 0.015185332 -0.059827883
-0.07941646 -0.15103213 0.015446469 -0.17514168 0.12799981 -0.04859466 -0.23557642 0.08381679
-0.14067203 0.053826917 0.06499549 0.13554707 -0.12601411 0.08908652 0.014547175 0.08123144

block1.0.bias f4 [32]
00000000: 0349 a5bd cf2a 36be e4f8 f43d 5d79 2dbe
00000010: 9a28 6c3d dc5f 5a3d d0fc c2bd 47f1 13be
00000020: 1c1c 5d3e 0188 bc3d 9172 cdbd 434a 6cbd
00000030: 5965 c1bd e85c 543e 0f57 893c da5a e33d
00000040: dd2f d2bd 34df 4ebd 825e 1f3d fae9 67bc
00000050: 621d 31be 4ae1 403e 361e 00ba bf54 e33d
00000060: 5d7f 123e b090 72be dea7 30be 3db2 483c
00000070: 494c fa3c 4804 bc3d 0684 c63d fbcf 8c3e
-0.080705665 -0.17789768 0.119615346 -0.16940828 0.05765591 0.053314075 -0.095208764 -0.14447509
0.21592754 0.09205628 -0.100316174 -0.05768801 -0.09443159 0.20738566 0.016765146 0.11101313
-0.102630354 -0.05050583 0.03890849 -0.014154905 -0.17296365 0.18835941 -0.0004887314 0.111001484
0.14306398 -0.23688006 -0.17251536 0.012249527 0.030553954 0.09180504 0.0969315 0.27502427

block1.1.weight f4 [32]
00000000: b28a 663f 6225 6a3f ffb2 713f b34b 7e3f
00000010: a841 823f 566d 5f3f 0744 823f 5c71 743f
00000020: 5a97 833f ec03 733f ae5b 7d3f fd69 783f
00000030: dd87 753f 3a48 a43f 65ca 613f f107 953f
00000040: ac1e 813f 1454 753f 52a4 6a3f 9828 793f
00000050: ca9b 8d3f 8eeb 633f aea6 883f 1072 733f
00000060: bddd 683f 00b8 7d3f 0d3b 673f 0cf8 773f
00000070: 942e 733f 5f0b 6e3f 18f6 753f f3aa 8d3f
0.9005538 0.9146329 0.9441375 0.9933426 1.0176287 0.8727621 1.017701 0.9548547
1.0280564 0.9492786 0.9896802 0.97036725 0.95910436 1.2834542 0.88199455 1.1643049
1.0087485 0.9583142 0.9165698 0.97327566 1.1063168 0.890313 1.0675867 0.9509592
0.90963346 0.99108887 0.9032448 0.96862864 0.9499295 0.929861 0.96078634 1.1067795

block1.1.bias f4 [32]
00000000: 4fa5 a8be 6004 bfbc 7395 69be 41e0 0abe
00000010: ae3d 10be 79f8 73bd 58e5 7abe c04b 6cbe
00000020: b28c a7be 6918 27be f088 51be 9881 aebd
00000030: 97f6 b0be 6de7 30be e5c1 543d 4f75 86be
00000040: 35d6 02be 3a8d 57be a310 8cbe 1771 0cbe
00000050: 0aa6 efbd 8298 b8bd 92ee 4bbd 4979 18be
00000060: 4e1a 66be 55a6 c5be b2c6 3dbe 4444 3cbe
00000070: e154 c6be 8085 7ebe d4bb 8dbe 1f61 f0bd
-0.3293862 -0.023317516 -0.22810917 -0.13562109 -0.14086029 -0.059563134 -0.2450155 -0.23075771
-0.3272453 -0.16317905 -0.20462394 -0.08520812 -0.34563133 -0.17275782 0.051942725 -0.26261374
-0.12777026 -0.21049967 -0.27356443 -0.13715015 -0.11701591 -0.090134636 -0.049788065 -0.14890017
-0.22470972 -0.38603464 -0.18532827 -0.18385416 -0.38736632 -0.24855614 -0.27682364 -0.117372744

block1.1.running_mean f4 [32]
00000000: c98e 4f3e 3cd1 16be 9c1c cd3e 1fa5 b63f
00000010: 1329 853f 41b1 00bf 749a 223e 0aa7 9c3d
00000020: 2f54 b13e 5589 763f 3f84 44bf a716 1cbe
00000030: 9bc9 7ebf b30b 5a3e d858 11be 187e 873e
00000040: f46f 103f 3a36 3dbf 425e 1cbf 11a1 7e3e
00000050: 01fb 343c ed80 12bf becc b83d dfb9 d1be
00000060: 8a25 423f 0670 3f3f 2d0f 13bf 8e05 a0be
00000070: 869c 193f f21c 293e bcf8 573e 274b 833e
0.20269312 -0.14728254 0.4006089 1.4269141 1.040316 -0.5027047 0.15879232 0.07649048
0.3463454 0.963033 -0.7676429 -0.15243016 -0.99526376 0.21293525 -0.14194047 0.2646339
0.56420827 -0.7391087 -0.61081326 0.2486613 0.011046172 -0.57227975 0.090234265 -0.4096212
0.7583853 0.7478031 -0.5744503 -0.31254238 0.6000446 0.16514948 0.21090978 0.25643274

block1.1.running_var f4 [32]
00000000: 4020 093d 359a 723c b40e 003d 68e5 923e
00000010: 66c6 1b3e 03d1 6d3d 03e2 7f3d 7a0c 673c
00000020: 5fef 2f3c f193 463e 6cc4 ad3d eb8d c33c
00000030: 012a 083e 8512 b43c a153 603c 3975 a83c
00000040: 95e1 023e 1d7f 883d 5f2a a73d a86a bb3c
00000050: 702d 573d 7913 203e 1f2b 323d 4beb 2f3d
00000060: e3f7 103e df2f f53d 4f9b 093d 2cd0 593d
00000070: 50e7 593d 2c1d 103d bf38 bc3c 5a41 883d
0.03347802 0.014807274 0.031264022 0.28690648 0.15212402 0.058060657 0.0624714 0.014102096
0.010738223 0.19392373 0.0848473 0.023871383 0.13297273 0.021981487 0.013691814 0.020563709
0.12781365 0.0666487 0.081623785 0.022878006 0.052533567 0.15632428 0.043498155 0.042949002
0.14157061 0.11972021 0.03359538 0.053177044 0.053199112 0.03518407 0.022976277 0.0665309

block2.0.weight f4 [64, 32, 3, 3]
00000000: dc45 d03c 53d3 d6bd 7086 95bd 7233 8b3c
00000010: d359 98bd c76a 0fbd f63c 77bb 0f14 1fbd
00000020: c707 57bd 4d66 963d 8fc7 66bc 4601 36bc
00000030: b907 153d ae86 17bd a0af 39bd 8236 e6bd
00000040: 1267 07be 899c 84bd 0fcc 2c3d b698 4a3e
00000050: cd11 9b3d 504f a8bc c669 bc3d 5411 d53d
00000060: ec75 f5bb bd74 f13d c951 e43d 1575 88bd
00000070: f493 993d efe9 82bb 8ac8 c5bd b42e 283a
00000080: f4c6 a2bc a21b 85bd 971c 9e3d a1f7 863d
00000090: effc e03b 86d4 2d3c f21d 683d 4837 95bd
000000a0: 8f96 fa3d ab13 4bbd ac40 b7bd 0422 913d
000000b0: 6214 25bb 53cd 213c 3000 6fbd d94a 7fbc
000000c0: 4ed4 803c c453 6bbd e108 9cbd ba09 80bd
000000d0: 773d 64bc 53ca 503d 627f f8bc 923c d03d
000000e0: 3d21 bd3c cb47 0a3d fadd 263d d86d 683d
000000f0: ac38 1d3e 7f7c d73d df5f 203e 7c51 f9bd
00000100: 4de0 cebd 9c40 b83c fd1b e23d 7174 c63d
00000110: 3007 6e3a ee66 923d ec1a 79ba b063 40bd
00000120: 8c0c 883b 1a22 243c 2b0e 2c3e e965 b13c
00000130: 392a 093d 444a e13d a27e 6d3d 7240 b43d
00000140: fa86 da3c 20b0 2bbe 2992 b2bd 92a5 4fbd
00000150: 25e3 d4bd 1966 98bd 5c12 013d d6b7 563d
00000160: 78a6 173e 70eb 193e 306a b1bc 9a36 503d
00000170: a6a4 413d edbc 8aba 913c dabc 05ab 8f3d
00000180: 2588 9f3d c13d 4b3b 34a8 493d ef2f 0abe
00000190: 86f8 e93c 2197 b13c 6c8b 1f3d 7ea6 01bb
000001a0: 4731 333c 15cd f4bd 5409 37be f4e6 0cbe
000001b0: b169 b1bd 499b 55bd a850 05be 2ce2 8abc
000001c0: 74ce 73bc 6ed6 abbd b30e 423d 4212 ed3d
000001d0: 5878 943d 7f88 ec3c 61a8 063e d68a e03d
000001e0: 9d7e 92be cd90 d3bd aa88 4abe ab06 383e
000001f0: e8ac 303e c09e 713e 691b 3b3d ab7c 69bc
00000200: fbe3 a13d 2f93 2d3c 8a97 37bc 4440 b93a
00000210: 4390 a6bd 728f 86bd 91ec e4bc 8e7c 5fbd
00000220: d334 abbd 5eec e2bc 795b f13d 299b 6b3c
00000230: c54c 95bc 12c5 be3d 205d 1fbc 23e5 bfbc
00000240: 4a25 56bd 30aa f93c 7945 603c 2552 5ebd
00000250: ad16 f3bb 0733 31bd 7df0 17be 21cd 56bd
00000260: f208 7a3b 1f18 e1bd 913a 0abd 55cd d5bd
00000270: 4d57 27bd f265 90bc 1c76 e2bd 811e 723c
00000280: 67e6 3e3d d890 e93d 4e13 2d3d 2a79 16bd
00000290: e09c a33c 5136 d33b 01b2 fd3c 3d9f e73c
000002a0: 05d0 e83c 6606 48bd 270b 113e ebe2 ba3d
000002b0: 79e0 183d c17f 073e 5c5a 3b3c abfb 08bc
000002c0: cec6 41bc c66b 883d 3f7f 00be c2ff d0bc
000002d0: f5b3 0f3e c69c 7fbc e449 263c 35d7 9c3d
000002e0: 57d8 f63c 0dcd 68bd 5429 393a 6a48 f7bd
000002f0: 93c3 ec3b bfcc 353d 1b89 db3d 0a12 373d
00000300: c4ef e93c f114 9dbc 9a85 5a3a 38d6 fc3b
00000310: 5f58 e9bc 76db c6bc b677 14bd 1171 4a3c
00000320: 9339 9dbc 4315 0a3d 7417 6a3d d269 f73c
00000330: 612c 5bbd 701d 87bd 6545 c6bb 017c 2c3c
00000340: 92b0 21bc 7d6e 9cbc c525 1bbd 4e24 8cbd
00000350: 762a 0cbe 95e0 d43c eba0 7e3d 7d34 5d3c
00000360: 8457 f6bd 241a ca3b 0526 3d3d 66e8 a03b
00000370: a743 efbc 4a45 3abc 172e 9dbd 3ffb 11bd
00000380: 332b abbd 9872 3a3c 866e ce3c 0682 04bd
00000390: d87d e83c bbaa dc3c 44ce be3c 0ce6 3e3d
000003a0: 6539 87bc be55 58bd eede bcba fd45 a3bd
000003b0: e2fd 163b e8fa 45bd 84c4 aa3b e042 8d3c
000003c0: cd1d 043d feb2 573d 5090 bd3c 851a 09be
000003d0: 1919 eebc 5367 a43d 7289 a2bc 0f15 93bd
000003e0: 9275 243d a4de f53d 41be b43c 3d60 6f3d
000003f0: 7793 433c 6004 da3c 10ed 9a3d 0caf 88bc
0.025423937 -0.10489526 -0.073010325 0.016992304 -0.074390076 -0.03501394 -0.0037725545 -0.03883749
-0.05249765 0.07343731 -0.014085664 -0.011108702 0.036384318 -0.036993675 -0.045333505 -0.11240865
-0.13222912 -0.06475169 0.042186793 0.19784817 0.075717546 -0.020545632 0.09199862 0.10403696
-0.007490864 0.11789844 0.11148412 -0.066629566 0.07498923 -0.003995172 -0.096573904 0.0006415651
-0.019870259 -0.06499411 0.07720297 0.065902 0.0068660895 0.010609752 0.056669183 -0.07285935
0.12235748 -0.049579304 -0.08947882 0.07086566 -0.002518915 0.009875613 -0.05834979 -0.01558181
0.015726235 -0.057452932 -0.07618881 -0.06251855 -0.01393067 0.0509742 -0.030334178 0.10167803
0.023087138 0.033759873 0.040739037 0.05674538 0.1535365 0.105217926 0.15661572 -0.12173745
-0.10101376 0.022491746 0.110404946 0.09690178 0.00090800505 0.071485385 -0.0009502608 -0.04697007
0.0041518863 0.010017896 0.1680228 0.02165504 0.033487532 0.11000493 0.057982095 0.088013545
0.02667569 -0.16766405 -0.08719284 -0.05069501 -0.10394887 -0.074413486 0.03151165 0.052421413
0.14809597 0.15031219 -0.02165708 0.050833322 0.04727616 -0.0010584869 -0.026640208 0.07015041
0.077896394 0.003101215 0.049232677 -0.13494848 0.028560888 0.02167851 0.038951322 -0.0019783075
0.010937042 -0.11953179 -0.17874652 -0.13759977 -0.08662737 -0.052150045 -0.13019049 -0.01695355
-0.014880765 -0.083905086 0.0473773 0.11575748 0.07249516 0.02887368 0.13150169 0.10963981
-0.28612223 -0.10330353 -0.19778696 0.17971294 0.17253458 0.23595715 0.045680437 -0.014250915
0.07904812 0.010594173 -0.011205563 0.0014133533 -0.081329845 -0.06570329 -0.027944835 -0.054562144
-0.08359685 -0.0277006 0.11785025 0.014380255 -0.018225083 0.09314932 -0.009726793 -0.02342469
-0.052281655 0.03047666 0.013688439 -0.054277558 -0.0074184746 -0.043261554 -0.14837833 -0.05244172
0.0038152304 -0.10990929 -0.03374726 -0.104395546 -0.04085474 -0.017626736 -0.11057684 0.0147777805
0.046606448 0.1140458 0.04225474 -0.036736645 0.019972265 0.006445684 0.030968668 0.028274173
0.028419504 -0.048834227 0.1416441 0.091253124 0.03732345 0.13232328 0.011435118 -0.008360784
-0.011827184 0.06661181 -0.1254854 -0.02551258 0.14033492 -0.015601343 0.010149453 0.07658235
0.030132456 -0.056836177 0.00070633483 -0.12074359 0.0072254627 0.044384714 0.1071951 0.044694938
0.028556712 -0.019175025 0.0008335948 0.0077159666 -0.028484521 -0.024274569 -0.036246978 0.012356059
-0.019192493 0.033711683 0.057151273 0.030201826 -0.05350912 -0.06597412 -0.006050753 0.010527612
-0.009868758 -0.019095654 -0.037877817 -0.06842862 -0.13688073 0.025985995 0.062165182 0.013501284
-0.12028411 0.006167667 0.046178836 0.0049105166 -0.029207064 -0.011369059 -0.076748066 -0.035639998
-0.08357849 0.01137986 0.025199186 -0.032350563 0.02838032 0.02693688 0.023291714 0.04660611
-0.01650686 -0.052816145 -0.00144097 -0.079723336 0.002303951 -0.048334986 0.005211415 0.017243803
0.032254983 0.052660935 0.023140103 -0.13389023 -0.029064702 0.0802752 -0.01984093 -0.07181751
0.040151186 0.12005356 0.022063376 0.05844139 0.011937014 0.026613414 0.07564747 -0.016685031

block2.0.bias f4 [64]
00000000: 48ee f8bd d095 ba3b b783 703d 6e2a a23d
00000010: 6c3c 753e ff25 3abc 0abd bd3b 5101 c0bd
00000020: 17a5 f6bc 9dff 473d c2cf 4cbd d18b 44bc
00000030: 113e 023e 80d4 87bc 7492 4e3c 9131 afbc
00000040: b12b b0bd aee9 ac3b fc8a 75bc 9841 e53c
00000050: 81e9 6a3d 0fd9 3ebd a129 8f3d b838 11bc
00000060: 8109 ac3c c7f1 99bd da35 4fbc 285f 3fbd
00000070: 9a0f 763c 74b6 9ebc 1f65 54bd 53ef 9ebd
00000080: 1734 7a3d 68b7 42bd 564e e3bd 302b 67bd
00000090: 3812 053e c1b9 8abc 704d 3ebc a135 81bd
000000a0: 136c 103d fbfb ce3c fb1a 64bc 2b2b 2b3c
000000b0: 834f 283d 40d6 403d 8389 123d edd9 8bbc
000000c0: 74d6 ee3c d0c9 c7bd f7fc 233c a637 ddbb
000000d0: 4699 2dbb 3279 ddbd 0ce1 51bd bfd2 99bb
000000e0: 2b86 f6bb bcf0 193d 2b4b 843c 2675 27bd
000000f0: 4d4f ec3c caa6 19bd 69e7 c2bd 6e33 fbbc
-0.121548235 0.0056941286 0.058719363 0.07918249 0.2394883 -0.011361598 0.0057903575 -0.09375251
-0.030108018 0.048827756 -0.05000282 -0.011996225 0.12718989 -0.01658082 0.012608159 -0.02138594
-0.086020835 0.00527688 -0.01498675 0.02798538 0.057351593 -0.046593722 0.06990362 -0.00886362
0.021000626 -0.075168185 -0.012647117 -0.046721607 0.015018368 -0.01937411 -0.05185425 -0.07760491
0.061084833 -0.04753819 -0.11098926 -0.05643767 0.12995231 -0.016934277 -0.011615142 -0.06309057
0.035259318 0.025266638 -0.013922448 0.010447304 0.041091453 0.047079325 0.035775673 -0.017071689
0.029154994 -0.097552896 0.010009042 -0.0067510186 -0.0026489063 -0.10814132 -0.051240012 -0.0046943123
-0.0075233183 0.037583098 0.016149124 -0.040883206 0.028846407 -0.037512578 -0.09516794 -0.030664172

block2.1.weight f4 [64]
00000000: ef3d 7e3f 7c82 6a3f cc80 653f 9b49 6c3f
00000010: 2fed 7d3f 69d5 643f e66d 863f 724f 503f
00000020: cc7e 703f 8382 673f 5a8f 7c3f f0ed 673f
00000030: 8bfd 643f 8bc7 7c3f 0530 723f 6824 763f
00000040: 085d 623f aaaa 7b3f 81f6 6f3f 93ed 813f
00000050: 2e73 683f 91dc 6e3f aeed 793f 8743 613f
00000060: fe2d 4a3f da16 763f a956 713f c339 853f
00000070: 321d 5d3f a74b 713f 359f 753f 62fd 823f
00000080: 179e 883f 3747 4f3f 567a 873f 10ff 643f
00000090: dc46 903f 8431 833f ddd4 803f 08d6 723f
000000a0: d5a7 9e3f ceff 6f3f f161 523f 81ad 783f
000000b0: f916 633f aea6 663f 7b7e 603f 9934 723f
000000c0: e042 603f b04c 4f3f d81c 693f 24da 6f3f
000000d0: 5c81 6c3f 9a72 7c3f cc78 543f 4010 7b3f
000000e0: a8e9 713f c929 803f 897e 703f 41a4 753f
000000f0: 28c6 6a3f d17f 773f 6919 763f cc22 673f
0.99313253 0.91605353 0.89649653 0.92299813 0.9919004 0.8938814 1.0502288 0.81371224
0.93943477 0.9043352 0.9865624 0.9059744 0.89449376 0.9874198 0.9460452 0.961493
0.88423204 0.9830729 0.9373551 1.0150627 0.9080075 0.9330531 0.97628295 0.87993664
0.7897643 0.9612862 0.9427286 1.0408252 0.86372674 0.9425606 0.95946056 1.0233576
1.0673245 0.8096804 1.0584209 0.89451694 1.1271625 1.0249486 1.0064961 0.94857836
1.2394968 0.937497 0.82180697 0.97139746 0.8870693 0.90098083 0.87692994 0.9461151
0.87602043 0.8097639 0.9105964 0.9369223 0.92384887 0.9861237 0.8299682 0.9807167
0.94497156 1.0012752 0.9394308 0.95953757 0.9170861 0.9667941 0.9613252 0.9028747

block2.1.bias f4 [64]
00000000: c46b e0be bccd 85be 06fc c7be cf7d 44be
00000010: 9982 2dbf 7b99 b6be bbe2 3fbe 7b0c ebbe
00000020: d2c5 e2be cf3a 84be b0b5 a4be cb7b b2be
00000030: 440e b4be 7d53 a5be 54a0 8fbe 1190 d9be
00000040: 075e a7be 0a6d b7be 63c7 bcbe 0b72 cdbe
00000050: 83fc e0be d0ec 70be f1ca 03bf a40b aabe
00000060: e4ad f3be 4ebc 96be 6f48 8dbe ebea 89be
00000070: 9e83 a2be 9987 a6be 6478 70be 489d 6abe
00000080: 7b33 a4be bab0 f1be 8f11 e6be 6a1b acbe
00000090: c35b 96be 9295 e1be ec20 c7be 1e3a d9be
000000a0: 7455 fcbe 9c89 b8be 2c19 adbe dede 89be
000000b0: 7d72 b0be d8fa f5be 3819 bbbe fd5f 99be
000000c0: 4fab a5be bf31 bcbe 911f 01bf 5ddb 95be
000000d0: 52eb c0be 0a6d 17bf 7370 ecbe bf1e 96be
000000e0: aaf8 bdbe a693 9ebe 2962 15be 49ca 8bbe
000000f0: 7e0b c3be c132 87be 1731 7cbe 328d 72be
-0.4383222 -0.26133525 -0.39059466 -0.19188617 -0.677774 -0.3566397 -0.18738835 -0.4590796
-0.4429155 -0.25826117 -0.32169867 -0.34860072 -0.35167134 -0.3229026 -0.28052008 -0.42492726
-0.32688925 -0.35825378 -0.3687087 -0.4012607 -0.4394265 -0.23527837 -0.5148154 -0.33212006
-0.47593606 -0.2944054 -0.27594325 -0.2693704 -0.3174104 -0.32525328 -0.23483425 -0.2291156
-0.32070526 -0.47205144 -0.4493527 -0.33614665 -0.29366884 -0.44059426 -0.38892305 -0.42427152
-0.49283946 -0.36042488 -0.33808267 -0.26927847 -0.34462348 -0.4804294 -0.36542678 -0.29956046
-0.3235726 -0.36756703 -0.5043879 -0.29268923 -0.37679535 -0.59150755 -0.46179542 -0.29320332
-0.37103778 -0.30972022 -0.14588226 -0.2730277 -0.38094705 -0.2640591 -0.24628101 -0.23686674

block2.1.running_mean f4 [64]
00000000: a780 e83d 7a6b 4a3f e617 44bf c40a bcbf
00000010: 6426 e4bc 2b54 f8bf 4962 88bf 8c4f 21bf
00000020: 1518 91bf 54c9 163f f466 60bf 9898 203f
00000030: 65ef 84bd 35fe 55bf 7ed3 5f3f 6efa bdbe
00000040: 8de4 bb3e 4639 51bf 6c7c afbe ea70 143f
00000050: f503 bdbe 4940 bc3e 7651 ab3a 0689 a83f
00000060: f183 2e3f 8e09 4bbf 4703 dabd 7097 bbbe
00000070: 2025 cabf 21cd 063f ac9e edbe 7d97 6ebf
00000080: 1258 c4be aa0d 51bf 0385 dabe d76a f2bf
00000090: a403 46bf 69eb 50bf 4aa2 a5bf 72c6 9fbf
000000a0: d8ce f3be 4746 2840 8f5f 0cc0 cdfb 963f
000000b0: f8ec 34be 16ec 32be cdf0 d63f 5e18 1340
000000c0: 6357 bd3f 074b 923e bec4 3440 d80d cabf
000000d0: e77e 81be 5716 bdbe 39a9 63bf e168 603f
000000e0: a072 99be 8fa4 4bc0 9146 05bf 663f d5bf
000000f0: 35c9 f7bd 4203 59bf b637 d13e 502b adbf
0.113526635 0.79070246 -0.76598966 -1.4690785 -0.027850337 -1.9400686 -1.0654994 -0.63012004
-1.1335474 0.5890095 -0.87657094 0.6273284 -0.064909734 -0.83591014 0.87432086 -0.37105125
0.36697808 -0.8172802 -0.34274614 0.57984793 -0.3691708 0.36767796 0.0013070542 1.3166816
0.68170077 -0.79311454 -0.10645156 -0.36638975 -1.579258 0.5265675 -0.4641012 -0.931999
-0.38348442 -0.81661475 -0.42679605 -1.8938855 -0.77349305 -0.8160921 -1.2940152 -1.2482436
-0.47618747 2.6292894 -2.1933324 1.1795594 -0.17668521 -0.17472872 1.6792237 2.2983623
1.4792293 0.28572866 2.8245082 -1.5785475 -0.2529213 -0.36931106 -0.8893009 0.8766003
-0.29970264 -3.1819189 -0.520608 -1.6659973 -0.12098924 -0.84770596 0.40862817 -1.3528843

block2.1.running_var f4 [64]
00000000: f2c1 0c3f fe66 4e3f 8931 bb3f 7ddf a03f
00000010: ac69 683f f04b fc3f 96bf 133f f786 3b3f
00000020: 42f4 7f3f 08a7 763f e567 263f db41 973f
00000030: 83df c23f 4dec 4b3f b40e ce3f c936 6c3f
00000040: 49f2 7e3f 40c5 573f e2f8 9a3f 1407 743f
00000050: e88b 703f 120c a23f 480d 2b3f 6b6b cb3f
00000060: 8f68 1d40 62d6 803f 9006 7d3f 1895 9d3f
00000070: 0723 f03f d6d9 ab3f 3e95 f13e 08c7 113f
00000080: 4433 893f f35e 7a3f 7494 033f 80c9 813f
00000090: fc0f 2a3f 427b 363f 03fb 813f 7b0c 983f
000000a0: fb16 8f3e 338e 8f3f bf8e 0d40 3b5e 5a3f
000000b0: 70f8 343f a7f7 443f 6660 ec3f 672f d73f
000000c0: 81b7 883f 6b05 ae3f 4559 8b3f 2fa6 533f
000000d0: d50b 173f 2d1b 383f 56eb 323f 6d18 5f3f
000000e0: 717b 803f b5cf 3440 db8c a23f 0b95 a13f
000000f0: b197 383f 64dd d03f a567 913f 4e8b 2240
0.5498344 0.80625904 1.4624492 1.2568203 0.9078624 1.9710674 0.5771421 0.73252815
0.9998208 0.9634862 0.6500228 1.1816972 1.522446 0.7965744 1.6098237 0.92271096
0.9958845 0.84285355 1.2107203 0.953233 0.9396348 1.2659934 0.6681714 1.5892156
2.4595068 1.0065424 0.9883814 1.2311125 1.876069 1.3425853 0.47184175 0.5694432
1.071877 0.9780113 0.51398396 1.0139618 0.6643064 0.71281826 1.0154728 1.1878809
0.2794722 1.1215271 2.2118375 0.85300034 0.70691586 0.7694039 1.8466918 1.6811341
1.0681001 1.3595403 1.0886618 0.8267545 0.5900243 0.71916467 0.69890344 0.87146646
1.0037671 2.8251774 1.2699236 1.2623609 0.7210646 1.6317563 1.1359755 2.5397525

block3.0.weight f4 [128, 64, 3, 3]
00000000: f509 b83d 7655 8e3d b53e 6c3d b85c dbbd
00000010: 711a 16bc 6940 2ebd 7824 ccbc 530c 313d
00000020: 32a7 033d cf29 59bd 6552 0cbe f832 84bd
00000030: a937 f23c 1052 4cbd fc5c f2bb 90d5 ad3d
00000040: d7d6 9a3d 0e31 afbc d07f b2bc 18e7 a9bb
00000050: fe84 193d 98ca 403d 5415 5b3d f0b4 343d
00000060: 3b02 043e c03a be3d 4929 fe3d e8d3 8fbd
00000070: 81e7 b2bc 8a05 88bd ba27 31bd 8ad3 13bb
00000080: 1c74 f43c e2f4 31ba d301 913d eb37 27bb
00000090: 85d1 ce3d dddf 933d b9e3 20bc c0b2 893d
000000a0: 64c3 dd3b 633e 013d 44c8 5b3d 2526 4cbb
000000b0: cab6 b6b9 a047 dbbd 529c 08be 47c1 c9bd
000000c0: eba0 94bd 6997 60bd 6cbf cebd c1f0 c1bd
000000d0: 4f2c 6dbc 727c c4bc d321 523d 2e8b 143d
000000e0: 5049 9a3b 864e 913c 36d5 8fbd f4ab a4bc
000000f0: b608 88bd a7c5 65bd 996f b8bc 22b9 283c
00000100: 37fe b8bd df9a 55bd 2cc5 39bd 9328 dabc
00000110: 3767 3b3d 4480 01bb ffcd 003a 557e bc3d
00000120: 826d b3bb 28e5 0cb9 c9ef 103d 2c6a daba
00000130: d189 9bbc 5342 15bd a943 5cbd 10e3 27bd
00000140: 607d c13b af62 6e3b 8b15 76bd 0b1a 09be
00000150: dc65 2cbd bee7 69bc 359c 0fbe 2e75 7fbd
00000160: b241 72bd ebcb 36bd 5ee5 acbd 8825 59bd
00000170: ade7 90bd 88dc 79bd 3c85 f2bc ceb8 3abd
00000180: 964a 04bd 0ae0 0b3b 4954 373d 8263 353d
00000190: 38f3 d93d 7e80 ca3d 8932 5e3d 8edc b13d
000001a0: f4aa 3b3d 4857 37bc 12e1 25bc 8903 683b
000001b0: 4f4e a83c 612c 8f3b c3cc 8b3d 9afa 573b
000001c0: 057a 16bd e4fd 513d 1cc3 a7bb f40e db3c
000001d0: 022f a43d 80b3 5e3d 6f26 8e3d fffb 033e
000001e0: b291 2cbd 96ea 4dba 4da1 043e 72f5 9bbd
000001f0: b13c 17bd 8911 133d 2053 f63c 74f7 3a3b
00000200: ee3c 373c 93a6 b53d 5d6c b83c bf41 debc
00000210: 2314 703d b924 fe3d 9fe5 b43d 63ff 283d
00000220: 8a9c 493c c1ef 5d3d 06bf 6e3d 6337 ca3d
00000230: 3d4e b03d 67d3 053e 22c9 df3d 723d ec3d
00000240: 5bc7 8ebc d634 213d 2d98 80bc e72c a83d
00000250: 6a1e c23d c473 823d 4e77 253d 3241 7f3d
00000260: 1d2e ef3c c9ef 1d3d 20fb 033e 7acc 0f3d
00000270: 143e 883c 44fa b9bb 0eba fe3b 3b28 2abd
00000280: 0ff4 67bc 535f ffbc 2c7c 063d bfc0 99bd
00000290: 69a3 10bc 58df 9dbd f901 92bd d2cc e4bc
000002a0: 7ac2 f53d 9210 e33d 1185 b63b c21d 343d
000002b0: 2546 00bd 04e2 f7bc 8b0b 9dbb ea8d 783c
000002c0: afa7 6a3c e269 133d a846 d0bb 87d0 f53c
000002d0: 71b0 8a3d bd2d 4c3c 882a cf3c c16b 563d
000002e0: 14a0 4e3d 145f 783d 4880 81bd 2184 83bd
000002f0: 13b6 d1bc 10d4 6abd 140b 36bb 58b4 2e3b
00000300: bffd 49bd 9f60 a6bc 6de6 9ebd 0138 e8bc
00000310: 8847 a0bd 0938 b9bd 5022 c13c b872 50bb
00000320: aa91 2fbd 719a 833d de2c 543d 59fe 9c3d
00000330: e3d4 df3d 6e69 b73d 31ac f33d de35 c03c
00000340: 615e e6bc f080 e83b 5efa f1bc 4c5c 91ba
00000350: c6bd a03c afe9 313d f34d 093d ce54 d63c
00000360: 0f6c 703d 5d2c 563d b7c3 123d 063e 83bc
00000370: ec5c 723c 0c2f d13c 7d66 afbd 8328 78bd
00000380: 5f16 cebd 3145 f7bd e252 8fbc 0bf0 e2bd
00000390: eb49 333d a7d0 ddbc 6726 c4bd a6df 7d3d
000003a0: 001f 4e3b 5e78 51bd 6779 95bd 031d 53bd
000003b0: 1b0f 01bd bf79 34bd 32eb fdbd 37c8 99bd
000003c0: d5e2 b4bd 63f0 96bd 24e1 97bd 9082 b23d
000003d0: 71d4 d63b 8080 263e cc19 f43d 3f1e 833d
000003e0: f8a6 cc3d d79f d43c 73fa a5bd 154b a0bd
000003f0: 1a73 063a b8e6 33bd baca 10bc 3e1a f5bc
0.08986274 0.06949894 0.05767699 -0.10711044 -0.009161578 -0.042541895 -0.024919733 0.043224644
0.03214187 -0.053018387 -0.13703306 -0.06455034 0.029567556 -0.04988295 -0.0073963385 0.084879994
0.07560509 -0.021385696 -0.021789461 -0.005185019 0.037480347 0.04706821 0.053487137 0.044117868
0.12891476 0.092885494 0.12410218 -0.0702284 -0.021838905 -0.066416815 -0.043250777 -0.0022556507
0.029840522 -0.00067885045 0.07080426 -0.0025515507 0.100985564 0.07220433 -0.009819918 0.06723547
0.006767677 0.031553637 0.053657785 -0.0031150666 -0.00034849934 -0.10707021 -0.13340881 -0.09851318
-0.07257255 -0.054831896 -0.100951046 -0.09469748 -0.014475896 -0.023985121 0.05130179 0.036265545
0.0047084466 0.017737638 -0.07023089 -0.020101525 -0.066422865 -0.0560967 -0.022514151 0.010298045
-0.09032863 -0.05214965 -0.045354053 -0.026630675 0.04575273 -0.001976029 0.00049135083 0.092037834
-0.005475701 -0.00013436808 0.035384927 -0.0016663722 -0.018986614 -0.036440205 -0.053775463 -0.040988028
0.0059048384 0.0036374738 -0.06007914 -0.13388841 -0.04208933 -0.014276443 -0.14024432 -0.06236761
-0.059144683 -0.044628065 -0.08442186 -0.05301431 -0.07075439 -0.06100133 -0.029604547 -0.0455864
-0.032297693 0.0021343254 0.044758115 0.04428435 0.106420934 0.09887789 0.054247413 0.086846456
0.04581733 -0.011190243 -0.010124462 0.0035402498 0.020545153 0.004369304 0.068261646 0.0032955767
-0.03673746 0.05126752 -0.0051196944 0.026740529 0.080167785 0.054370403 0.069409244 0.12889098
-0.042131133 -0.00078550854 0.12952156 -0.07615174 -0.036923114 0.035905395 0.030068934 0.0028528841
0.01118396 0.08869662 0.02251261 -0.02713096 0.058612954 0.12409348 0.08832859 0.04125918
0.012305388 0.054183725 0.058287643 0.098738454 0.08608673 0.13068925 0.10927035 0.11535157
-0.017429044 0.03935703 -0.015697563 0.082116894 0.09478457 0.06369737 0.04039698 0.062318034
0.029196793 0.038558755 0.12888765 0.035107113 0.016631164 -0.005675586 0.0077736443 -0.041542273
-0.014157309 -0.031173384 0.032833263 -0.075074665 -0.0088280225 -0.07708615 -0.071292825 -0.027929697
0.11999984 0.11087145 0.005570062 0.04397369 -0.031316895 -0.03025914 -0.004792636 0.015170554
0.014322205 0.03598965 -0.006356079 0.03000666 0.06771935 0.012462077 0.025288835 0.052348856
0.05044563 0.06063755 -0.06323296 -0.06421686 -0.025599515 -0.057331145 -0.00277776 0.0026657786
-0.049314257 -0.020309744 -0.07758794 -0.028347017 -0.078261435 -0.09043891 0.023575932 -0.003180666
-0.042863525 0.06425942 0.0518006 0.076657005 0.10929277 0.08955656 0.11898077 0.023463186
-0.028121175 0.0070954487 -0.02953833 -0.0011090129 0.019621741 0.04343575 0.033521604 0.026163485
0.058696803 0.052288402 0.03583118 -0.016020786 0.014792662 0.025535129 -0.0856447 -0.06058551
-0.10062861 -0.12073744 -0.017495576 -0.11080941 0.043771666 -0.027077032 -0.09577637 0.061980866
0.0031451583 -0.05114018 -0.07298546 -0.05154134 -0.031508546 -0.04406142 -0.123983756 -0.07508891
-0.08832327 -0.07370069 -0.07415989 0.08716309 0.0065560867 0.16259956 0.11918983 0.06402253
0.09992784 0.025955124 -0.0810441 -0.07826821 0.0005128846 -0.043921202 -0.008837396 -0.02991974

block3.0.bias f4 [128]
00000000: e665 033c 2e2a 723c 3f84 2c3b 4b42 313d
00000010: 8a17 7dbd 7d9b 4bbc 175f c3bc fc40 9ebc
00000020: 0765 ff3c 4d89 c2bc 442e 97bc 6b66 37bd
00000030: 245a 04bc 769a d0bc 0e7f 2cbd caa6 84bb
00000040: 716d 82bc 7d11 18bb 949e b7bc 2b84 bb3a
00000050: 411f c7bb bf6b fb3c d129 743d 71cf af3c
00000060: f9d0 e83c ac13 86bc 082a 543d 6060 6d3c
00000070: cc0f 323c 6533 1cbd 9d9a 8bbc a96f f1bc
00000080: d7e3 f0bc 4ff3 1a3d 0cdb 59bc ef39 463d
00000090: 7f7f cfbb e1f9 93bb 4002 da3c 673f ab3c
000000a0: b103 e43c 50bc 9fbc b74c f23c f034 fa3c
000000b0: bf13 f3bc adcc ffbc e0f5 903c 377d c2bc
000000c0: 9fef 1fbd 8559 033d b09b 9bbc 23c2 81bb
000000d0: a0e0 fabc be9a 043d 4c44 043c 0e49 48bd
000000e0: 2bea b23c 2fac 19bd 6527 db3b 2472 143d
000000f0: cb14 31bd 0314 03bd 37f3 51bd e1f5 263d
00000100: 8e34 c0bc 6a81 31bd ea50 a33a d7ca aa3c
00000110: 1813 563c a2f7 293c 2037 d43b 674b 8d3c
00000120: 2ae3 74bc 857b 2abd 865b 8d3d 5f37 9ebb
00000130: d987 a23c e301 a6bc a35f 1b3d 812d 3abd
00000140: 0ee0 a0bc 926c c9bb c713 50bd 268d 93bc
00000150: 5197 35bd 9cc4 f3bc b233 e93b 6ac2 fc3c
00000160: 038c 71bc b5ce 863c 9450 bb3c f5f5 98bc
00000170: 907c 213d 8b81 b83c fb21 0cbd af96 6fbc
00000180: 43c4 7f3c 8bf7 463c f530 f2bc af31 b63c
00000190: a3dc a0bc fda7 013d b752 6c3d 0cf2 97bc
000001a0: a733 8b3b 088e 4cbd 17f5 10bd 96eb 433d
000001b0: 6df1 6c3c 72c7 72bd 4e03 dcbb ab33 bebc
000001c0: 7955 3e3c 5313 ae3c 3716 a73b 201e 51bc
000001d0: 898a 95bc f767 fbbc 3c4d 2e3d a688 e1bb
000001e0: 3a9a e73c 4094 233d 731d 0dbd f694 f6bb
000001f0: b7f4 47bc 2420 213b de7f cebc 4f12 e13b
0.0080199 0.014780564 0.0026323942 0.043276113 -0.061790027 -0.012427208 -0.023849053 -0.019318096
0.031176103 -0.02374711 -0.018454678 -0.044775408 -0.008078132 -0.025464278 -0.042113356 -0.004048203
-0.015921326 -0.0023203783 -0.022414483 0.0014306357 -0.006076724 0.030691026 0.05961019 0.02146122
0.028419958 -0.016366802 0.051797897 0.01448831 0.010868024 -0.03813495 -0.017041499 -0.029472189
-0.029405518 0.037829693 -0.013296854 0.048395094 -0.0063323374 -0.004515872 0.026612401 0.020904256
0.027833791 -0.019498974 0.029577596 0.03054282 -0.029672502 -0.031225527 0.017695367 -0.023741348
-0.03904688 0.032067794 -0.018995136 -0.0039599105 -0.030624688 0.032374136 0.008072924 -0.048897795
0.021840176 -0.037517723 0.006688046 0.036241665 -0.04323272 -0.032001507 -0.05125734 0.040761832
-0.02346256 -0.04333631 0.0012460027 0.020848675 0.013066076 0.010373982 0.006476298 0.017247869
-0.014946738 -0.041621704 0.06902222 -0.004828378 0.019840168 -0.020264572 0.037933003 -0.045453552
-0.019638088 -0.006146976 -0.05080011 -0.01801164 -0.04433376 -0.029756837 0.0071167583 0.030854423
-0.014742854 0.016455987 0.022865571 -0.018671969 0.039425433 0.022522708 -0.034212094 -0.014623328
0.015610757 0.01214398 -0.02956436 0.022240488 -0.019636458 0.031654347 0.05769607 -0.018548034
0.004248101 -0.04994014 -0.035389986 0.047832094 0.014461857 -0.059272237 -0.006714261 -0.023217997
0.011617058 0.021249449 0.0050990838 -0.01276353 -0.018254535 -0.030689223 0.042554125 -0.006882745
0.028271783 0.039936304 -0.034451913 -0.0075250817 -0.012204341 0.0024585808 -0.025207456 0.0068686376

block3.1.weight f4 [128]
00000000: 409f 8b3f 187a 883f 4661 893f 8ff9 843f
00000010: 17b1 883f d82f 983f f43e 883f a2b6 883f
00000020: ebde 843f 8ba9 873f 1648 9d3f 163f 853f
00000030: 9a0a 823f 4cf7 913f 05b3 883f 0f38 883f
00000040: d8b5 8b3f 0bfb 8d3f 7bb6 823f 0730 853f
00000050: b2e9 883f 5630 8e3f e4d2 803f 1111 823f
00000060: 2d3d 803f 8acc 893f 43b6 873f 0a52 983f
00000070: 7e3a 863f e922 903f cb6e 823f f0d2 833f
00000080: f7e3 8a3f 673c 803f acc3 8a3f fd5e 8d3f
00000090: e7d8 853f 0d90 883f 1471 873f 41d2 833f
000000a0: 2965 833f 312f 883f 8b45 8c3f 587e 953f
000000b0: cf2e 873f f410 893f eff8 8b3f 614e 823f
000000c0: a0e7 8b3f 9765 923f 502b 933f b025 883f
000000d0: 2526 8a3f acdb 813f dc25 9d3f bf36 833f
000000e0: 1954 8a3f f028 813f 854c 883f 91ab 923f
000000f0: 919c 933f 1bd4 8e3f a502 8c3f 0f89 873f
00000100: 5cab 873f 1108 8d3f ad9e 833f 43fa 8a3f
00000110: 482b 7e3f 92a6 853f 6262 863f 09ff 843f
00000120: 0784 8f3f e40f 883f 731a 883f 9610 853f
00000130: 5c9b 8e3f 749f 813f 0985 8a3f cee0 873f
00000140: 861f 8d3f 1359 8b3f f8eb 863f b78e 843f
00000150: 9df6 813f 9939 813f 0306 883f 52f7 8b3f
00000160: 8a7e 833f 62fd 953f c7a1 913f 4bf8 843f
00000170: 1ad8 843f 1c02 8a3f c973 8d3f a40b 863f
00000180: 1af5 833f 3f5c 8f3f 3085 843f 4166 883f
00000190: e7a8 873f e34f 893f d59e 863f 8682 8e3f
000001a0: 7060 903f 2d6f 803f 08b9 8c3f 6726 933f
000001b0: 462d 8e3f 025c 813f c4f8 8b3f 98b9 893f
000001c0: ad11 8d3f bbaf 893f 05d1 893f 75dd 903f
000001d0: 31ef 8c3f d22d 883f f5ae 8f3f b32e 853f
000001e0: ac63 893f 4eaf 843f 6b89 843f a72a 853f
000001f0: 5d65 863f a261 853f 4212 863f ff24 853f
1.0907974 1.066226 1.073281 1.0388659 1.0679044 1.1889601 1.0644212 1.0680735
1.0380529 1.0598615 1.2287624 1.0409877 1.0159485 1.1403594 1.0679632 1.0642108
1.0914869 1.1092237 1.0211939 1.0405282 1.0696318 1.1108501 1.0064359 1.0161458
1.0018669 1.0765545 1.0602497 1.1900036 1.04866 1.1260654 1.0190061 1.0298748
1.0850819 1.0018433 1.0840964 1.1044613 1.0456818 1.0668961 1.0581384 1.0298539
1.0265247 1.0639402 1.0958723 1.1679182 1.056116 1.0708299 1.0935344 1.0180169
1.0930061 1.1437253 1.1497593 1.0636501 1.0792891 1.0145164 1.2277179 1.0251082
1.0806915 1.0090618 1.0648352 1.1458608 1.1532155 1.115848 1.0938307 1.0588702
1.059917 1.1018087 1.0282799 1.0857624 0.9928479 1.0441458 1.0498774 1.039033
1.1212167 1.062985 1.0633072 1.0395687 1.1141162 1.0126786 1.0821849 1.061548
1.1025245 1.0886558 1.0540762 1.0356053 1.0153385 1.0095702 1.0626835 1.0934851
1.0272992 1.1717951 1.1377496 1.0388273 1.0378449 1.0781894 1.105096 1.0472302
1.0309174 1.1200026 1.0353146 1.0656205 1.059842 1.0727504 1.0517222 1.1133583
1.127943 1.0033928 1.0993967 1.1496094 1.1107566 1.0106204 1.0935292 1.0759764
1.1021019 1.0756754 1.0766913 1.1317583 1.1010495 1.0638983 1.1225268 1.0404876
1.0733542 1.0365999 1.0354437 1.0403641 1.0499684 1.042042 1.0474322 1.0401915

block3.1.bias f4 [128]
00000000: fa86 2abe 8515 55be 5748 8bbe 8b04 26be
00000010: 6029 36be a5a8 37be ab08 73be 55d7 72be
00000020: b72c 85be b9c3 4fbe c85c 22be 8318 52be
00000030: 19f7 64be b0f2 57be 5ff9 12be 7baa 39be
00000040: fc94 33be e787 3ebe b1e8 21be fd3b 15be
00000050: 9798 33be be81 42be 9f3c 61be 4c90 44be
00000060: a98b 2ebe 0adc 71be 4767 3ebe e65b 7bbe
00000070: 783b 70be e52b b0be 9c7f 35be 3ed7 40be
00000080: 64b6 8bbe f783 22be 15d6 2bbe fe5a 4fbe
00000090: 1693 49be 16ed 83be d667 7dbe 00e2 28be
000000a0: 76c1 34be a328 87be d631 38be 13ef 4dbe
000000b0: 20ae 57be f4c6 19be 138c 48be 4eb3 31be
000000c0: f2d3 69be 9e99 6bbe 9d73 49be a5a7 85bd
000000d0: c83b 85be 4cc9 5abe f006 4cbe b409 54be
000000e0: 2f5d 9ebe d8d3 49be 823b 61be 089d 8fbe
000000f0: 3e67 53be cbd1 07be ca26 4bbe d4ed 67be
00000100: ba99 5fbe 89a9 33be 9082 59be 0a09 1abe
00000110: 2db5 7abe a1b1 21be dd35 6dbe 8c6c 78be
00000120: b50e 35be 18b4 3ebe 8bb1 2dbe ecd1 4abe
00000130: dd27 8fbe f8af 3bbe 42d0 75be dc59 25be
00000140: 17ed 8cbe 4f61 65be 65a5 3dbe 36ea 41be
00000150: a3f4 45be 86b2 5dbe 66bf 25be 2eaf 15be
00000160: f1ab 47be 29a0 93be 83e1 59be e158 68be
00000170: e5ad 67be 7bcf 89be b1a1 77be c445 7cbe
00000180: 1768 56be 44bb 57be 9285 3ebe 8b07 46be
00000190: afe0 2ebe c912 7ebe 2097 60be 22dc 5fbe
000001a0: 41c9 78be 1f7b 29be 17f9 20be 0528 34be
000001b0: da27 93be bcb7 3fbe a93d 99be 76bb 8dbe
000001c0: f298 8fbe 89cb 16be e038 58be 141a 06be
000001d0: 315c 7ebe ca51 44be 5728 26be 5d06 16be
000001e0: 7f70 77be ac00 33be 2e53 35be 103f 30be
000001f0: b932 4bbe 4f45 71be 248b 4cbe db89 77be
-0.16653052 -0.2080899 -0.27203628 -0.1621267 -0.17789221 -0.17935427 -0.23733775 -0.23714955
-0.26010677 -0.20289506 -0.15855706 -0.20517163 -0.22359885 -0.21088672 -0.1435294 -0.1813144
-0.17537302 -0.1860653 -0.15811421 -0.14573665 -0.17538677 -0.18994805 -0.21995781 -0.1919567
-0.17045464 -0.23619094 -0.18594085 -0.24546775 -0.23460186 -0.3440849 -0.1772446 -0.18832108
-0.2728759 -0.15870653 -0.16780885 -0.20249555 -0.19685015 -0.2576682 -0.24746642 -0.16492462
-0.17651924 -0.2639819 -0.17987761 -0.20110731 -0.21062517 -0.15017301 -0.19584684 -0.17353556
-0.22834757 -0.23007819 -0.19673009 -0.06526116 -0.26022172 -0.21365851 -0.19924521 -0.20706826
-0.30930468 -0.19709718 -0.21995357 -0.28049493 -0.20644853 -0.13263623 -0.19839016 -0.22649318
-0.21835986 -0.17545141 -0.21241212 -0.1504251 -0.24483176 -0.15790416 -0.23165078 -0.24260157
-0.17681392 -0.18623388 -0.16962259 -0.19806641 -0.279601 -0.18328846 -0.24005225 -0.1614756
-0.27524635 -0.22400402 -0.18520124 -0.18937 -0.19331603 -0.21650133 -0.16186294 -0.14617607
-0.19499184 -0.2883313 -0.21277432 -0.22690155 -0.22624929 -0.26916108 -0.24182774 -0.24635988
-0.20938145 -0.2106753 -0.1860564 -0.19338815 -0.17077897 -0.24811853 -0.2193265 -0.21861318
-0.24295522 -0.16550873 -0.1572002 -0.17593391 -0.28741342 -0.18722433 -0.29929855 -0.27682084
-0.28046376 -0.1472608 -0.21115446 -0.13095886 -0.24839856 -0.19171825 -0.16226326 -0.14650865
-0.24164008 -0.17480725 -0.17707512 -0.17211556 -0.19843568 -0.23561595 -0.19974953 -0.24173681

block3.1.running_mean f4 [128]
00000000: fd3b d6be ed3a 73be 782f d53f 377a a83f
00000010: 2b85 acbc bd64 87be f7a9 4b3f 693a 293f
00000020: 1959 74bf ce13 853e 2c4f 633e 1244 1bbe
00000030: 8405 043e e3d2 41be c60d 133f 2fc5 4fbf
00000040: 557d 34be b0cd 8cbf b4f1 61bd 5d24 713f
00000050: 4666 0a3d 8fd1 5a3f b032 3f3f e08e 3d3e
00000060: a9ec dfbe f14f 0440 4dd5 073f 693c 213f
00000070: 61b0 ed3f fde2 95bf 5a43 b33e 7e51 d0bc
00000080: 03ca cabe 4950 fe3e 336e 453e ef8f 9f3f
00000090: 6a5d 113e 635a b33f 2fb2 1b3e 3a57 b93e
000000a0: e97d bfbc 6664 e93f 3168 cabe 3709 e13e
000000b0: 3353 bcbe 88bd 223f f0cd e83f 6962 033f
000000c0: 5dad 1fbf 12cd 8e3e 21f7 b03e a4a4 d0bf
000000d0: 9d4c dbbe edde 9e3f f12e 763d 457f d23f
000000e0: f4bd 17bf 41cb a13e 42f8 9a3d 646a 233e
000000f0: b3af c23d 4581 6bbf b5d7 263f 89bd 813f
00000100: f8bf 0340 0397 063e ce8f 9d3f 1575 803f
00000110: d72f a4be d35b 803f 2079 3c3f 86fe 533f
00000120: 52e9 233f d716 b23e 4082 55bf 310e 743f
00000130: 0138 33bf 888a d8be 22a5 8a3f c937 0e3f
00000140: 704f 9d3f 09db 4c3f 22ef c03e b7c0 0b3e
00000150: 7e8d 883c 942f cf3f 8650 ac3f 248d 033f
00000160: a013 cd3d a998 d6be e85f 783e 77ad e2be
00000170: 0e38 c93f 3e47 51bf ae23 a3bc c358 383f
00000180: bc49 ad3f 2de7 d2bc dfae 2c3f 6d14 7bbf
00000190: aba8 633f 642c bf3e 8e15 733e e2ff 963f
000001a0: 65f3 ae3e 4f71 b2be c102 7bbe db05 a93f
000001b0: 4c65 e2bf 1e74 423f 64f3 a4be 68e8 e0bd
000001c0: 179d c2bd 9999 af3f 991b 593e c94c 0cbf
000001d0: 5d5f 2e3f e3e3 453f 89fe 853f c554 313e
000001e0: f8bd 20be 9874 ac3f 4804 cabe b712 623e
000001f0: 1a59 c53f 923e 553f 4b26 a53f 93dc a63f
-0.41842642 -0.23752947 1.6655111 1.3162297 -0.021059593 -0.26444045 0.7955622 0.6610475
-0.9544845 0.25991672 0.2219817 -0.15162686 0.12892729 -0.18928103 0.5744289 -0.81160253
-0.17625935 -1.1000271 -0.055162147 0.9419611 0.03378894 0.8547601 0.7468672 0.18511534
-0.43735245 2.0673792 0.53059846 0.62982804 1.8569452 -1.1709896 0.35012323 -0.025429484
-0.39607248 0.49670628 0.19280319 1.24658 0.14195791 1.4011959 0.1520469 0.3619936
-0.023375468 1.8233764 -0.39532617 0.43952343 -0.36782226 0.6357045 1.8187847 0.51322037
-0.62373906 0.2789083 0.34563544 -1.6300244 -0.4283189 1.2411782 0.06010336 1.644509
-0.5927422 0.31600383 0.07566883 0.15958554 0.09506168 -0.91994125 0.6517289 1.0135967
2.0585918 0.13143544 1.2309511 1.0035731 -0.3206775 1.0028023 0.7362232 0.82810247
0.64027894 0.3478305 -0.8340187 0.95334154 -0.7000733 -0.4229319 1.0831645 0.5555387
1.2289867 0.8002172 0.37682444 0.13647734 0.016669031 1.6186395 1.3462074 0.5138724
0.10013509 -0.41913345 0.24255335 -0.44272968 1.5720232 -0.8174933 -0.019914474 0.7201044
1.3538127 -0.025744999 0.6745433 -0.9807804 0.8892924 0.37338555 0.23738691 1.1796839
0.3417007 -0.34852073 -0.2451277 1.3204912 -1.7687163 0.7595843 -0.32216942 -0.10981828
-0.09502619 1.3718749 0.21201934 -0.54804665 0.6811426 0.7730085 1.0468303 0.17317493
-0.15697467 1.3473082 -0.3945639 0.22077452 1.5417817 0.832986 1.2902311 1.3036064

block3.1.running_var f4 [128]
00000000: 583c 253f 54a3 4c3f 1d2b 933f 1727 a33f
00000010: e2d6 373f afa1 a83f 9469 383f 9897 853f
00000020: cee6 583f e1b5 733f 311d cc3f d186 1d3f
00000030: cf9f 4d3f 7abd ae3f d3c2 5c3f 6f4d 7c3f
00000040: e8c5 503f 15b8 843f ac36 8c3f 2fb7 8e3f
00000050: 7973 273f e8d5 a93f 4e3f 1b3f 6e22 553f
00000060: 845e 873f 85da 843f c40d 583f e595 5c3f
00000070: 9a6c 4d3f bc06 5a3f 3dc3 763f 254e 603f
00000080: 8330 e13f 960d 9d3f 3d18 4a3f e952 763f
00000090: 1858 763f b0f5 583f 58f3 823f 5589 8d3f
000000a0: 32ae 733f 1925 4e3f 1a8f 3c3f c31a a13f
000000b0: d550 833f e510 703f a87b 6b3f 3ac1 4a3f
000000c0: 24bc 343f 627f 943f 89ce 593f 7ef0 8a3f
000000d0: ffbe a53f 651f 843f 3e83 b33f c44b 623f
000000e0: 41e6 163f d469 763f b496 6a3f 31fa b03f
000000f0: 4654 c03f c8ac 583f 11df 4d3f 39b8 a33f
00000100: 10da 533f d14d 6a3f 4c4d 4b3f 668c 5d3f
00000110: 74de 853f 9b95 7f3f 887f 7f3f 6c26 9d3f
00000120: f628 2e3f f7b4 983f 646f 823f 30be 833f
00000130: 8a5f 4b3f e4e7 713f 484d 303f dd6c 5a3f
00000140: 24bf 243f ba29 383f 0b99 7d3f 5738 813f
00000150: a861 8e3f 8c9e 823f 64ee 563f 8ae5 6a3f
00000160: ab4f 793f 96c2 bc3f bebe 7f3f 0eb1 633f
00000170: 8f75 693f 39aa 493f 8388 993f 6cad 343f
00000180: 7895 833f afe4 453f 64e9 473f 9fb7 743f
00000190: ae16 483f 300e 8d3f 4174 4e3f 76b6 cc3f
000001a0: 55a1 a33f 898c b23f 7353 653f 87bf 273f
000001b0: bd3d 863f 2992 803f 8550 663f f8a0 453f
000001c0: de28 613f 2c12 603f 4c4e 873f 6b6c 803f
000001d0: 7b16 523f f1c8 a63f 0c33 a43f a2fe 603f
000001e0: f21a 7c3f e887 873f 7163 5f3f 3a66 733f
000001f0: b34e 703f 3bb5 703f 41b2 2e3f f8b6 613f
0.645452 0.7993672 1.1497532 1.2746304 0.7181226 1.3174342 0.720361 1.0436888
0.8472718 0.951994 1.5946409 0.6153384 0.80321974 1.3651574 0.8623478 0.98555654
0.8155198 1.0368677 1.0954185 1.1149653 0.6541057 1.3268404 0.6064347 0.8325566
1.0575719 1.0379187 0.84396005 0.8616622 0.8024384 0.85166526 0.9639166 0.8761924
1.759293 1.2269771 0.78943235 0.9622026 0.9622817 0.8474989 1.0230513 1.1057535
0.95187676 0.80525357 0.73655856 1.2586292 1.0259043 0.9377578 0.9198556 0.7920109
0.7059958 1.1601374 0.8508077 1.0854642 1.2948912 1.0322081 1.4024427 0.8839686
0.5894509 0.9625523 0.91636205 1.3826352 1.5025718 0.84638643 0.804185 1.2790595
0.8275461 0.9152499 0.7941482 0.86542356 1.0458512 0.99837655 0.9980397 1.227735
0.6803125 1.1930226 1.0190244 1.0292416 0.79442656 0.9449446 0.6886792 0.8532236
0.6435416 0.7193867 0.9906165 1.0095319 1.1123552 1.0204635 0.83957505 0.917565
0.9738719 1.4746883 0.99900424 0.8894204 0.91195005 0.78775364 1.1994785 0.7057712
1.0279989 0.7730207 0.780905 0.95592684 0.78159606 1.1019955 0.8064614 1.5993183
1.278361 1.3949138 0.8958046 0.6552662 1.0487591 1.0044605 0.89966613 0.77198744
0.87952983 0.8752773 1.0570769 1.0033087 0.8206555 1.3030072 1.2828078 0.8788854
0.98478615 1.058835 0.8726111 0.9507786 0.93870085 0.94026536 0.68240744 0.88169813
